{"config": {"layers": [{"config": {"batch_input_shape": [null, 64, 64, 3], "name": "input_1", "sparse": false, "dtype": "float32"}, "name": "input_1", "inbound_nodes": [], "class_name": "InputLayer"}, {"config": {"trainable": true, "name": "zero_padding2d_1", "data_format": "channels_last", "padding": [[3, 3], [3, 3]]}, "name": "zero_padding2d_1", "inbound_nodes": [[["input_1", 0, 0, {}]]], "class_name": "ZeroPadding2D"}, {"config": {"activity_regularizer": null, "trainable": true, "use_bias": true, "strides": [2, 2], "kernel_size": [7, 7], "bias_regularizer": null, "kernel_constraint": null, "kernel_initializer": {"config": {"seed": 0, "distribution": "uniform", "scale": 1.0, "mode": "fan_avg"}, "class_name": "VarianceScaling"}, "name": "conv1", "activation": "linear", "bias_constraint": null, "kernel_regularizer": null, "dilation_rate": [1, 1], "data_format": "channels_last", "bias_initializer": {"config": {}, "class_name": "Zeros"}, "filters": 64, "padding": "valid"}, "name": "conv1", "inbound_nodes": [[["zero_padding2d_1", 0, 0, {}]]], "class_name": "Conv2D"}, {"config": {"gamma_constraint": null, "gamma_regularizer": null, "beta_regularizer": null, "moving_mean_initializer": {"config": {}, "class_name": "Zeros"}, "name": "bn_conv1", "scale": true, "beta_constraint": null, "center": true, "axis": 3, "momentum": 0.99, "beta_initializer": {"config": {}, "class_name": "Zeros"}, "trainable": true, "epsilon": 0.001, "gamma_initializer": {"config": {}, "class_name": "Ones"}, "moving_variance_initializer": {"config": {}, "class_name": "Ones"}}, "name": "bn_conv1", "inbound_nodes": [[["conv1", 0, 0, {}]]], "class_name": "BatchNormalization"}, {"config": {"name": "activation_1", "trainable": true, "activation": "relu"}, "name": "activation_1", "inbound_nodes": [[["bn_conv1", 0, 0, {}]]], "class_name": "Activation"}, {"config": {"name": "max_pooling2d_1", "trainable": true, "pool_size": [3, 3], "strides": [2, 2], "data_format": "channels_last", "padding": "valid"}, "name": "max_pooling2d_1", "inbound_nodes": [[["activation_1", 0, 0, {}]]], "class_name": "MaxPooling2D"}, {"config": {"activity_regularizer": null, "trainable": true, "use_bias": true, "strides": [1, 1], "kernel_size": [1, 1], "bias_regularizer": null, "kernel_constraint": null, "kernel_initializer": {"config": {"seed": 0, "distribution": "uniform", "scale": 1.0, "mode": "fan_avg"}, "class_name": "VarianceScaling"}, "name": "res2a_branch2a", "activation": "linear", "bias_constraint": null, "kernel_regularizer": null, "dilation_rate": [1, 1], "data_format": "channels_last", "bias_initializer": {"config": {}, "class_name": "Zeros"}, "filters": 64, "padding": "valid"}, "name": "res2a_branch2a", "inbound_nodes": [[["max_pooling2d_1", 0, 0, {}]]], "class_name": "Conv2D"}, {"config": {"gamma_constraint": null, "gamma_regularizer": null, "beta_regularizer": null, "moving_mean_initializer": {"config": {}, "class_name": "Zeros"}, "name": "bn2a_branch2a", "scale": true, "beta_constraint": null, "center": true, "axis": 3, "momentum": 0.99, "beta_initializer": {"config": {}, "class_name": "Zeros"}, "trainable": true, "epsilon": 0.001, "gamma_initializer": {"config": {}, "class_name": "Ones"}, "moving_variance_initializer": {"config": {}, "class_name": "Ones"}}, "name": "bn2a_branch2a", "inbound_nodes": [[["res2a_branch2a", 0, 0, {}]]], "class_name": "BatchNormalization"}, {"config": {"name": "activation_2", "trainable": true, "activation": "relu"}, "name": "activation_2", "inbound_nodes": [[["bn2a_branch2a", 0, 0, {}]]], "class_name": "Activation"}, {"config": {"activity_regularizer": null, "trainable": true, "use_bias": true, "strides": [1, 1], "kernel_size": [3, 3], "bias_regularizer": null, "kernel_constraint": null, "kernel_initializer": {"config": {"seed": 0, "distribution": "uniform", "scale": 1.0, "mode": "fan_avg"}, "class_name": "VarianceScaling"}, "name": "res2a_branch2b", "activation": "linear", "bias_constraint": null, "kernel_regularizer": null, "dilation_rate": [1, 1], "data_format": "channels_last", "bias_initializer": {"config": {}, "class_name": "Zeros"}, "filters": 64, "padding": "same"}, "name": "res2a_branch2b", "inbound_nodes": [[["activation_2", 0, 0, {}]]], "class_name": "Conv2D"}, {"config": {"gamma_constraint": null, "gamma_regularizer": null, "beta_regularizer": null, "moving_mean_initializer": {"config": {}, "class_name": "Zeros"}, "name": "bn2a_branch2b", "scale": true, "beta_constraint": null, "center": true, "axis": 3, "momentum": 0.99, "beta_initializer": {"config": {}, "class_name": "Zeros"}, "trainable": true, "epsilon": 0.001, "gamma_initializer": {"config": {}, "class_name": "Ones"}, "moving_variance_initializer": {"config": {}, "class_name": "Ones"}}, "name": "bn2a_branch2b", "inbound_nodes": [[["res2a_branch2b", 0, 0, {}]]], "class_name": "BatchNormalization"}, {"config": {"name": "activation_3", "trainable": true, "activation": "relu"}, "name": "activation_3", "inbound_nodes": [[["bn2a_branch2b", 0, 0, {}]]], "class_name": "Activation"}, {"config": {"activity_regularizer": null, "trainable": true, "use_bias": true, "strides": [1, 1], "kernel_size": [1, 1], "bias_regularizer": null, "kernel_constraint": null, "kernel_initializer": {"config": {"seed": 0, "distribution": "uniform", "scale": 1.0, "mode": "fan_avg"}, "class_name": "VarianceScaling"}, "name": "res2a_branch2c", "activation": "linear", "bias_constraint": null, "kernel_regularizer": null, "dilation_rate": [1, 1], "data_format": "channels_last", "bias_initializer": {"config": {}, "class_name": "Zeros"}, "filters": 256, "padding": "valid"}, "name": "res2a_branch2c", "inbound_nodes": [[["activation_3", 0, 0, {}]]], "class_name": "Conv2D"}, {"config": {"activity_regularizer": null, "trainable": true, "use_bias": true, "strides": [1, 1], "kernel_size": [1, 1], "bias_regularizer": null, "kernel_constraint": null, "kernel_initializer": {"config": {"seed": 0, "distribution": "uniform", "scale": 1.0, "mode": "fan_avg"}, "class_name": "VarianceScaling"}, "name": "res2a_branch1", "activation": "linear", "bias_constraint": null, "kernel_regularizer": null, "dilation_rate": [1, 1], "data_format": "channels_last", "bias_initializer": {"config": {}, "class_name": "Zeros"}, "filters": 256, "padding": "valid"}, "name": "res2a_branch1", "inbound_nodes": [[["max_pooling2d_1", 0, 0, {}]]], "class_name": "Conv2D"}, {"config": {"gamma_constraint": null, "gamma_regularizer": null, "beta_regularizer": null, "moving_mean_initializer": {"config": {}, "class_name": "Zeros"}, "name": "bn2a_branch2c", "scale": true, "beta_constraint": null, "center": true, "axis": 3, "momentum": 0.99, "beta_initializer": {"config": {}, "class_name": "Zeros"}, "trainable": true, "epsilon": 0.001, "gamma_initializer": {"config": {}, "class_name": "Ones"}, "moving_variance_initializer": {"config": {}, "class_name": "Ones"}}, "name": "bn2a_branch2c", "inbound_nodes": [[["res2a_branch2c", 0, 0, {}]]], "class_name": "BatchNormalization"}, {"config": {"gamma_constraint": null, "gamma_regularizer": null, "beta_regularizer": null, "moving_mean_initializer": {"config": {}, "class_name": "Zeros"}, "name": "bn2a_branch1", "scale": true, "beta_constraint": null, "center": true, "axis": 3, "momentum": 0.99, "beta_initializer": {"config": {}, "class_name": "Zeros"}, "trainable": true, "epsilon": 0.001, "gamma_initializer": {"config": {}, "class_name": "Ones"}, "moving_variance_initializer": {"config": {}, "class_name": "Ones"}}, "name": "bn2a_branch1", "inbound_nodes": [[["res2a_branch1", 0, 0, {}]]], "class_name": "BatchNormalization"}, {"config": {"name": "add_1", "trainable": true}, "name": "add_1", "inbound_nodes": [[["bn2a_branch2c", 0, 0, {}], ["bn2a_branch1", 0, 0, {}]]], "class_name": "Add"}, {"config": {"name": "activation_4", "trainable": true, "activation": "relu"}, "name": "activation_4", "inbound_nodes": [[["add_1", 0, 0, {}]]], "class_name": "Activation"}, {"config": {"activity_regularizer": null, "trainable": true, "use_bias": true, "strides": [1, 1], "kernel_size": [1, 1], "bias_regularizer": null, "kernel_constraint": null, "kernel_initializer": {"config": {"seed": 0, "distribution": "uniform", "scale": 1.0, "mode": "fan_avg"}, "class_name": "VarianceScaling"}, "name": "res2b_branch2a", "activation": "linear", "bias_constraint": null, "kernel_regularizer": null, "dilation_rate": [1, 1], "data_format": "channels_last", "bias_initializer": {"config": {}, "class_name": "Zeros"}, "filters": 64, "padding": "valid"}, "name": "res2b_branch2a", "inbound_nodes": [[["activation_4", 0, 0, {}]]], "class_name": "Conv2D"}, {"config": {"gamma_constraint": null, "gamma_regularizer": null, "beta_regularizer": null, "moving_mean_initializer": {"config": {}, "class_name": "Zeros"}, "name": "bn2b_branch2a", "scale": true, "beta_constraint": null, "center": true, "axis": 3, "momentum": 0.99, "beta_initializer": {"config": {}, "class_name": "Zeros"}, "trainable": true, "epsilon": 0.001, "gamma_initializer": {"config": {}, "class_name": "Ones"}, "moving_variance_initializer": {"config": {}, "class_name": "Ones"}}, "name": "bn2b_branch2a", "inbound_nodes": [[["res2b_branch2a", 0, 0, {}]]], "class_name": "BatchNormalization"}, {"config": {"name": "activation_5", "trainable": true, "activation": "relu"}, "name": "activation_5", "inbound_nodes": [[["bn2b_branch2a", 0, 0, {}]]], "class_name": "Activation"}, {"config": {"activity_regularizer": null, "trainable": true, "use_bias": true, "strides": [1, 1], "kernel_size": [3, 3], "bias_regularizer": null, "kernel_constraint": null, "kernel_initializer": {"config": {"seed": 0, "distribution": "uniform", "scale": 1.0, "mode": "fan_avg"}, "class_name": "VarianceScaling"}, "name": "res2b_branch2b", "activation": "linear", "bias_constraint": null, "kernel_regularizer": null, "dilation_rate": [1, 1], "data_format": "channels_last", "bias_initializer": {"config": {}, "class_name": "Zeros"}, "filters": 64, "padding": "same"}, "name": "res2b_branch2b", "inbound_nodes": [[["activation_5", 0, 0, {}]]], "class_name": "Conv2D"}, {"config": {"gamma_constraint": null, "gamma_regularizer": null, "beta_regularizer": null, "moving_mean_initializer": {"config": {}, "class_name": "Zeros"}, "name": "bn2b_branch2b", "scale": true, "beta_constraint": null, "center": true, "axis": 3, "momentum": 0.99, "beta_initializer": {"config": {}, "class_name": "Zeros"}, "trainable": true, "epsilon": 0.001, "gamma_initializer": {"config": {}, "class_name": "Ones"}, "moving_variance_initializer": {"config": {}, "class_name": "Ones"}}, "name": "bn2b_branch2b", "inbound_nodes": [[["res2b_branch2b", 0, 0, {}]]], "class_name": "BatchNormalization"}, {"config": {"name": "activation_6", "trainable": true, "activation": "relu"}, "name": "activation_6", "inbound_nodes": [[["bn2b_branch2b", 0, 0, {}]]], "class_name": "Activation"}, {"config": {"activity_regularizer": null, "trainable": true, "use_bias": true, "strides": [1, 1], "kernel_size": [1, 1], "bias_regularizer": null, "kernel_constraint": null, "kernel_initializer": {"config": {"seed": 0, "distribution": "uniform", "scale": 1.0, "mode": "fan_avg"}, "class_name": "VarianceScaling"}, "name": "res2b_branch2c", "activation": "linear", "bias_constraint": null, "kernel_regularizer": null, "dilation_rate": [1, 1], "data_format": "channels_last", "bias_initializer": {"config": {}, "class_name": "Zeros"}, "filters": 256, "padding": "valid"}, "name": "res2b_branch2c", "inbound_nodes": [[["activation_6", 0, 0, {}]]], "class_name": "Conv2D"}, {"config": {"gamma_constraint": null, "gamma_regularizer": null, "beta_regularizer": null, "moving_mean_initializer": {"config": {}, "class_name": "Zeros"}, "name": "bn2b_branch2c", "scale": true, "beta_constraint": null, "center": true, "axis": 3, "momentum": 0.99, "beta_initializer": {"config": {}, "class_name": "Zeros"}, "trainable": true, "epsilon": 0.001, "gamma_initializer": {"config": {}, "class_name": "Ones"}, "moving_variance_initializer": {"config": {}, "class_name": "Ones"}}, "name": "bn2b_branch2c", "inbound_nodes": [[["res2b_branch2c", 0, 0, {}]]], "class_name": "BatchNormalization"}, {"config": {"name": "add_2", "trainable": true}, "name": "add_2", "inbound_nodes": [[["bn2b_branch2c", 0, 0, {}], ["activation_4", 0, 0, {}]]], "class_name": "Add"}, {"config": {"name": "activation_7", "trainable": true, "activation": "relu"}, "name": "activation_7", "inbound_nodes": [[["add_2", 0, 0, {}]]], "class_name": "Activation"}, {"config": {"activity_regularizer": null, "trainable": true, "use_bias": true, "strides": [1, 1], "kernel_size": [1, 1], "bias_regularizer": null, "kernel_constraint": null, "kernel_initializer": {"config": {"seed": 0, "distribution": "uniform", "scale": 1.0, "mode": "fan_avg"}, "class_name": "VarianceScaling"}, "name": "res2c_branch2a", "activation": "linear", "bias_constraint": null, "kernel_regularizer": null, "dilation_rate": [1, 1], "data_format": "channels_last", "bias_initializer": {"config": {}, "class_name": "Zeros"}, "filters": 64, "padding": "valid"}, "name": "res2c_branch2a", "inbound_nodes": [[["activation_7", 0, 0, {}]]], "class_name": "Conv2D"}, {"config": {"gamma_constraint": null, "gamma_regularizer": null, "beta_regularizer": null, "moving_mean_initializer": {"config": {}, "class_name": "Zeros"}, "name": "bn2c_branch2a", "scale": true, "beta_constraint": null, "center": true, "axis": 3, "momentum": 0.99, "beta_initializer": {"config": {}, "class_name": "Zeros"}, "trainable": true, "epsilon": 0.001, "gamma_initializer": {"config": {}, "class_name": "Ones"}, "moving_variance_initializer": {"config": {}, "class_name": "Ones"}}, "name": "bn2c_branch2a", "inbound_nodes": [[["res2c_branch2a", 0, 0, {}]]], "class_name": "BatchNormalization"}, {"config": {"name": "activation_8", "trainable": true, "activation": "relu"}, "name": "activation_8", "inbound_nodes": [[["bn2c_branch2a", 0, 0, {}]]], "class_name": "Activation"}, {"config": {"activity_regularizer": null, "trainable": true, "use_bias": true, "strides": [1, 1], "kernel_size": [3, 3], "bias_regularizer": null, "kernel_constraint": null, "kernel_initializer": {"config": {"seed": 0, "distribution": "uniform", "scale": 1.0, "mode": "fan_avg"}, "class_name": "VarianceScaling"}, "name": "res2c_branch2b", "activation": "linear", "bias_constraint": null, "kernel_regularizer": null, "dilation_rate": [1, 1], "data_format": "channels_last", "bias_initializer": {"config": {}, "class_name": "Zeros"}, "filters": 64, "padding": "same"}, "name": "res2c_branch2b", "inbound_nodes": [[["activation_8", 0, 0, {}]]], "class_name": "Conv2D"}, {"config": {"gamma_constraint": null, "gamma_regularizer": null, "beta_regularizer": null, "moving_mean_initializer": {"config": {}, "class_name": "Zeros"}, "name": "bn2c_branch2b", "scale": true, "beta_constraint": null, "center": true, "axis": 3, "momentum": 0.99, "beta_initializer": {"config": {}, "class_name": "Zeros"}, "trainable": true, "epsilon": 0.001, "gamma_initializer": {"config": {}, "class_name": "Ones"}, "moving_variance_initializer": {"config": {}, "class_name": "Ones"}}, "name": "bn2c_branch2b", "inbound_nodes": [[["res2c_branch2b", 0, 0, {}]]], "class_name": "BatchNormalization"}, {"config": {"name": "activation_9", "trainable": true, "activation": "relu"}, "name": "activation_9", "inbound_nodes": [[["bn2c_branch2b", 0, 0, {}]]], "class_name": "Activation"}, {"config": {"activity_regularizer": null, "trainable": true, "use_bias": true, "strides": [1, 1], "kernel_size": [1, 1], "bias_regularizer": null, "kernel_constraint": null, "kernel_initializer": {"config": {"seed": 0, "distribution": "uniform", "scale": 1.0, "mode": "fan_avg"}, "class_name": "VarianceScaling"}, "name": "res2c_branch2c", "activation": "linear", "bias_constraint": null, "kernel_regularizer": null, "dilation_rate": [1, 1], "data_format": "channels_last", "bias_initializer": {"config": {}, "class_name": "Zeros"}, "filters": 256, "padding": "valid"}, "name": "res2c_branch2c", "inbound_nodes": [[["activation_9", 0, 0, {}]]], "class_name": "Conv2D"}, {"config": {"gamma_constraint": null, "gamma_regularizer": null, "beta_regularizer": null, "moving_mean_initializer": {"config": {}, "class_name": "Zeros"}, "name": "bn2c_branch2c", "scale": true, "beta_constraint": null, "center": true, "axis": 3, "momentum": 0.99, "beta_initializer": {"config": {}, "class_name": "Zeros"}, "trainable": true, "epsilon": 0.001, "gamma_initializer": {"config": {}, "class_name": "Ones"}, "moving_variance_initializer": {"config": {}, "class_name": "Ones"}}, "name": "bn2c_branch2c", "inbound_nodes": [[["res2c_branch2c", 0, 0, {}]]], "class_name": "BatchNormalization"}, {"config": {"name": "add_3", "trainable": true}, "name": "add_3", "inbound_nodes": [[["bn2c_branch2c", 0, 0, {}], ["activation_7", 0, 0, {}]]], "class_name": "Add"}, {"config": {"name": "activation_10", "trainable": true, "activation": "relu"}, "name": "activation_10", "inbound_nodes": [[["add_3", 0, 0, {}]]], "class_name": "Activation"}, {"config": {"activity_regularizer": null, "trainable": true, "use_bias": true, "strides": [2, 2], "kernel_size": [1, 1], "bias_regularizer": null, "kernel_constraint": null, "kernel_initializer": {"config": {"seed": 0, "distribution": "uniform", "scale": 1.0, "mode": "fan_avg"}, "class_name": "VarianceScaling"}, "name": "res3a_branch2a", "activation": "linear", "bias_constraint": null, "kernel_regularizer": null, "dilation_rate": [1, 1], "data_format": "channels_last", "bias_initializer": {"config": {}, "class_name": "Zeros"}, "filters": 128, "padding": "valid"}, "name": "res3a_branch2a", "inbound_nodes": [[["activation_10", 0, 0, {}]]], "class_name": "Conv2D"}, {"config": {"gamma_constraint": null, "gamma_regularizer": null, "beta_regularizer": null, "moving_mean_initializer": {"config": {}, "class_name": "Zeros"}, "name": "bn3a_branch2a", "scale": true, "beta_constraint": null, "center": true, "axis": 3, "momentum": 0.99, "beta_initializer": {"config": {}, "class_name": "Zeros"}, "trainable": true, "epsilon": 0.001, "gamma_initializer": {"config": {}, "class_name": "Ones"}, "moving_variance_initializer": {"config": {}, "class_name": "Ones"}}, "name": "bn3a_branch2a", "inbound_nodes": [[["res3a_branch2a", 0, 0, {}]]], "class_name": "BatchNormalization"}, {"config": {"name": "activation_11", "trainable": true, "activation": "relu"}, "name": "activation_11", "inbound_nodes": [[["bn3a_branch2a", 0, 0, {}]]], "class_name": "Activation"}, {"config": {"activity_regularizer": null, "trainable": true, "use_bias": true, "strides": [1, 1], "kernel_size": [3, 3], "bias_regularizer": null, "kernel_constraint": null, "kernel_initializer": {"config": {"seed": 0, "distribution": "uniform", "scale": 1.0, "mode": "fan_avg"}, "class_name": "VarianceScaling"}, "name": "res3a_branch2b", "activation": "linear", "bias_constraint": null, "kernel_regularizer": null, "dilation_rate": [1, 1], "data_format": "channels_last", "bias_initializer": {"config": {}, "class_name": "Zeros"}, "filters": 128, "padding": "same"}, "name": "res3a_branch2b", "inbound_nodes": [[["activation_11", 0, 0, {}]]], "class_name": "Conv2D"}, {"config": {"gamma_constraint": null, "gamma_regularizer": null, "beta_regularizer": null, "moving_mean_initializer": {"config": {}, "class_name": "Zeros"}, "name": "bn3a_branch2b", "scale": true, "beta_constraint": null, "center": true, "axis": 3, "momentum": 0.99, "beta_initializer": {"config": {}, "class_name": "Zeros"}, "trainable": true, "epsilon": 0.001, "gamma_initializer": {"config": {}, "class_name": "Ones"}, "moving_variance_initializer": {"config": {}, "class_name": "Ones"}}, "name": "bn3a_branch2b", "inbound_nodes": [[["res3a_branch2b", 0, 0, {}]]], "class_name": "BatchNormalization"}, {"config": {"name": "activation_12", "trainable": true, "activation": "relu"}, "name": "activation_12", "inbound_nodes": [[["bn3a_branch2b", 0, 0, {}]]], "class_name": "Activation"}, {"config": {"activity_regularizer": null, "trainable": true, "use_bias": true, "strides": [1, 1], "kernel_size": [1, 1], "bias_regularizer": null, "kernel_constraint": null, "kernel_initializer": {"config": {"seed": 0, "distribution": "uniform", "scale": 1.0, "mode": "fan_avg"}, "class_name": "VarianceScaling"}, "name": "res3a_branch2c", "activation": "linear", "bias_constraint": null, "kernel_regularizer": null, "dilation_rate": [1, 1], "data_format": "channels_last", "bias_initializer": {"config": {}, "class_name": "Zeros"}, "filters": 512, "padding": "valid"}, "name": "res3a_branch2c", "inbound_nodes": [[["activation_12", 0, 0, {}]]], "class_name": "Conv2D"}, {"config": {"activity_regularizer": null, "trainable": true, "use_bias": true, "strides": [2, 2], "kernel_size": [1, 1], "bias_regularizer": null, "kernel_constraint": null, "kernel_initializer": {"config": {"seed": 0, "distribution": "uniform", "scale": 1.0, "mode": "fan_avg"}, "class_name": "VarianceScaling"}, "name": "res3a_branch1", "activation": "linear", "bias_constraint": null, "kernel_regularizer": null, "dilation_rate": [1, 1], "data_format": "channels_last", "bias_initializer": {"config": {}, "class_name": "Zeros"}, "filters": 512, "padding": "valid"}, "name": "res3a_branch1", "inbound_nodes": [[["activation_10", 0, 0, {}]]], "class_name": "Conv2D"}, {"config": {"gamma_constraint": null, "gamma_regularizer": null, "beta_regularizer": null, "moving_mean_initializer": {"config": {}, "class_name": "Zeros"}, "name": "bn3a_branch2c", "scale": true, "beta_constraint": null, "center": true, "axis": 3, "momentum": 0.99, "beta_initializer": {"config": {}, "class_name": "Zeros"}, "trainable": true, "epsilon": 0.001, "gamma_initializer": {"config": {}, "class_name": "Ones"}, "moving_variance_initializer": {"config": {}, "class_name": "Ones"}}, "name": "bn3a_branch2c", "inbound_nodes": [[["res3a_branch2c", 0, 0, {}]]], "class_name": "BatchNormalization"}, {"config": {"gamma_constraint": null, "gamma_regularizer": null, "beta_regularizer": null, "moving_mean_initializer": {"config": {}, "class_name": "Zeros"}, "name": "bn3a_branch1", "scale": true, "beta_constraint": null, "center": true, "axis": 3, "momentum": 0.99, "beta_initializer": {"config": {}, "class_name": "Zeros"}, "trainable": true, "epsilon": 0.001, "gamma_initializer": {"config": {}, "class_name": "Ones"}, "moving_variance_initializer": {"config": {}, "class_name": "Ones"}}, "name": "bn3a_branch1", "inbound_nodes": [[["res3a_branch1", 0, 0, {}]]], "class_name": "BatchNormalization"}, {"config": {"name": "add_4", "trainable": true}, "name": "add_4", "inbound_nodes": [[["bn3a_branch2c", 0, 0, {}], ["bn3a_branch1", 0, 0, {}]]], "class_name": "Add"}, {"config": {"name": "activation_13", "trainable": true, "activation": "relu"}, "name": "activation_13", "inbound_nodes": [[["add_4", 0, 0, {}]]], "class_name": "Activation"}, {"config": {"activity_regularizer": null, "trainable": true, "use_bias": true, "strides": [1, 1], "kernel_size": [1, 1], "bias_regularizer": null, "kernel_constraint": null, "kernel_initializer": {"config": {"seed": 0, "distribution": "uniform", "scale": 1.0, "mode": "fan_avg"}, "class_name": "VarianceScaling"}, "name": "res3b_branch2a", "activation": "linear", "bias_constraint": null, "kernel_regularizer": null, "dilation_rate": [1, 1], "data_format": "channels_last", "bias_initializer": {"config": {}, "class_name": "Zeros"}, "filters": 128, "padding": "valid"}, "name": "res3b_branch2a", "inbound_nodes": [[["activation_13", 0, 0, {}]]], "class_name": "Conv2D"}, {"config": {"gamma_constraint": null, "gamma_regularizer": null, "beta_regularizer": null, "moving_mean_initializer": {"config": {}, "class_name": "Zeros"}, "name": "bn3b_branch2a", "scale": true, "beta_constraint": null, "center": true, "axis": 3, "momentum": 0.99, "beta_initializer": {"config": {}, "class_name": "Zeros"}, "trainable": true, "epsilon": 0.001, "gamma_initializer": {"config": {}, "class_name": "Ones"}, "moving_variance_initializer": {"config": {}, "class_name": "Ones"}}, "name": "bn3b_branch2a", "inbound_nodes": [[["res3b_branch2a", 0, 0, {}]]], "class_name": "BatchNormalization"}, {"config": {"name": "activation_14", "trainable": true, "activation": "relu"}, "name": "activation_14", "inbound_nodes": [[["bn3b_branch2a", 0, 0, {}]]], "class_name": "Activation"}, {"config": {"activity_regularizer": null, "trainable": true, "use_bias": true, "strides": [1, 1], "kernel_size": [3, 3], "bias_regularizer": null, "kernel_constraint": null, "kernel_initializer": {"config": {"seed": 0, "distribution": "uniform", "scale": 1.0, "mode": "fan_avg"}, "class_name": "VarianceScaling"}, "name": "res3b_branch2b", "activation": "linear", "bias_constraint": null, "kernel_regularizer": null, "dilation_rate": [1, 1], "data_format": "channels_last", "bias_initializer": {"config": {}, "class_name": "Zeros"}, "filters": 128, "padding": "same"}, "name": "res3b_branch2b", "inbound_nodes": [[["activation_14", 0, 0, {}]]], "class_name": "Conv2D"}, {"config": {"gamma_constraint": null, "gamma_regularizer": null, "beta_regularizer": null, "moving_mean_initializer": {"config": {}, "class_name": "Zeros"}, "name": "bn3b_branch2b", "scale": true, "beta_constraint": null, "center": true, "axis": 3, "momentum": 0.99, "beta_initializer": {"config": {}, "class_name": "Zeros"}, "trainable": true, "epsilon": 0.001, "gamma_initializer": {"config": {}, "class_name": "Ones"}, "moving_variance_initializer": {"config": {}, "class_name": "Ones"}}, "name": "bn3b_branch2b", "inbound_nodes": [[["res3b_branch2b", 0, 0, {}]]], "class_name": "BatchNormalization"}, {"config": {"name": "activation_15", "trainable": true, "activation": "relu"}, "name": "activation_15", "inbound_nodes": [[["bn3b_branch2b", 0, 0, {}]]], "class_name": "Activation"}, {"config": {"activity_regularizer": null, "trainable": true, "use_bias": true, "strides": [1, 1], "kernel_size": [1, 1], "bias_regularizer": null, "kernel_constraint": null, "kernel_initializer": {"config": {"seed": 0, "distribution": "uniform", "scale": 1.0, "mode": "fan_avg"}, "class_name": "VarianceScaling"}, "name": "res3b_branch2c", "activation": "linear", "bias_constraint": null, "kernel_regularizer": null, "dilation_rate": [1, 1], "data_format": "channels_last", "bias_initializer": {"config": {}, "class_name": "Zeros"}, "filters": 512, "padding": "valid"}, "name": "res3b_branch2c", "inbound_nodes": [[["activation_15", 0, 0, {}]]], "class_name": "Conv2D"}, {"config": {"gamma_constraint": null, "gamma_regularizer": null, "beta_regularizer": null, "moving_mean_initializer": {"config": {}, "class_name": "Zeros"}, "name": "bn3b_branch2c", "scale": true, "beta_constraint": null, "center": true, "axis": 3, "momentum": 0.99, "beta_initializer": {"config": {}, "class_name": "Zeros"}, "trainable": true, "epsilon": 0.001, "gamma_initializer": {"config": {}, "class_name": "Ones"}, "moving_variance_initializer": {"config": {}, "class_name": "Ones"}}, "name": "bn3b_branch2c", "inbound_nodes": [[["res3b_branch2c", 0, 0, {}]]], "class_name": "BatchNormalization"}, {"config": {"name": "add_5", "trainable": true}, "name": "add_5", "inbound_nodes": [[["bn3b_branch2c", 0, 0, {}], ["activation_13", 0, 0, {}]]], "class_name": "Add"}, {"config": {"name": "activation_16", "trainable": true, "activation": "relu"}, "name": "activation_16", "inbound_nodes": [[["add_5", 0, 0, {}]]], "class_name": "Activation"}, {"config": {"activity_regularizer": null, "trainable": true, "use_bias": true, "strides": [1, 1], "kernel_size": [1, 1], "bias_regularizer": null, "kernel_constraint": null, "kernel_initializer": {"config": {"seed": 0, "distribution": "uniform", "scale": 1.0, "mode": "fan_avg"}, "class_name": "VarianceScaling"}, "name": "res3c_branch2a", "activation": "linear", "bias_constraint": null, "kernel_regularizer": null, "dilation_rate": [1, 1], "data_format": "channels_last", "bias_initializer": {"config": {}, "class_name": "Zeros"}, "filters": 128, "padding": "valid"}, "name": "res3c_branch2a", "inbound_nodes": [[["activation_16", 0, 0, {}]]], "class_name": "Conv2D"}, {"config": {"gamma_constraint": null, "gamma_regularizer": null, "beta_regularizer": null, "moving_mean_initializer": {"config": {}, "class_name": "Zeros"}, "name": "bn3c_branch2a", "scale": true, "beta_constraint": null, "center": true, "axis": 3, "momentum": 0.99, "beta_initializer": {"config": {}, "class_name": "Zeros"}, "trainable": true, "epsilon": 0.001, "gamma_initializer": {"config": {}, "class_name": "Ones"}, "moving_variance_initializer": {"config": {}, "class_name": "Ones"}}, "name": "bn3c_branch2a", "inbound_nodes": [[["res3c_branch2a", 0, 0, {}]]], "class_name": "BatchNormalization"}, {"config": {"name": "activation_17", "trainable": true, "activation": "relu"}, "name": "activation_17", "inbound_nodes": [[["bn3c_branch2a", 0, 0, {}]]], "class_name": "Activation"}, {"config": {"activity_regularizer": null, "trainable": true, "use_bias": true, "strides": [1, 1], "kernel_size": [3, 3], "bias_regularizer": null, "kernel_constraint": null, "kernel_initializer": {"config": {"seed": 0, "distribution": "uniform", "scale": 1.0, "mode": "fan_avg"}, "class_name": "VarianceScaling"}, "name": "res3c_branch2b", "activation": "linear", "bias_constraint": null, "kernel_regularizer": null, "dilation_rate": [1, 1], "data_format": "channels_last", "bias_initializer": {"config": {}, "class_name": "Zeros"}, "filters": 128, "padding": "same"}, "name": "res3c_branch2b", "inbound_nodes": [[["activation_17", 0, 0, {}]]], "class_name": "Conv2D"}, {"config": {"gamma_constraint": null, "gamma_regularizer": null, "beta_regularizer": null, "moving_mean_initializer": {"config": {}, "class_name": "Zeros"}, "name": "bn3c_branch2b", "scale": true, "beta_constraint": null, "center": true, "axis": 3, "momentum": 0.99, "beta_initializer": {"config": {}, "class_name": "Zeros"}, "trainable": true, "epsilon": 0.001, "gamma_initializer": {"config": {}, "class_name": "Ones"}, "moving_variance_initializer": {"config": {}, "class_name": "Ones"}}, "name": "bn3c_branch2b", "inbound_nodes": [[["res3c_branch2b", 0, 0, {}]]], "class_name": "BatchNormalization"}, {"config": {"name": "activation_18", "trainable": true, "activation": "relu"}, "name": "activation_18", "inbound_nodes": [[["bn3c_branch2b", 0, 0, {}]]], "class_name": "Activation"}, {"config": {"activity_regularizer": null, "trainable": true, "use_bias": true, "strides": [1, 1], "kernel_size": [1, 1], "bias_regularizer": null, "kernel_constraint": null, "kernel_initializer": {"config": {"seed": 0, "distribution": "uniform", "scale": 1.0, "mode": "fan_avg"}, "class_name": "VarianceScaling"}, "name": "res3c_branch2c", "activation": "linear", "bias_constraint": null, "kernel_regularizer": null, "dilation_rate": [1, 1], "data_format": "channels_last", "bias_initializer": {"config": {}, "class_name": "Zeros"}, "filters": 512, "padding": "valid"}, "name": "res3c_branch2c", "inbound_nodes": [[["activation_18", 0, 0, {}]]], "class_name": "Conv2D"}, {"config": {"gamma_constraint": null, "gamma_regularizer": null, "beta_regularizer": null, "moving_mean_initializer": {"config": {}, "class_name": "Zeros"}, "name": "bn3c_branch2c", "scale": true, "beta_constraint": null, "center": true, "axis": 3, "momentum": 0.99, "beta_initializer": {"config": {}, "class_name": "Zeros"}, "trainable": true, "epsilon": 0.001, "gamma_initializer": {"config": {}, "class_name": "Ones"}, "moving_variance_initializer": {"config": {}, "class_name": "Ones"}}, "name": "bn3c_branch2c", "inbound_nodes": [[["res3c_branch2c", 0, 0, {}]]], "class_name": "BatchNormalization"}, {"config": {"name": "add_6", "trainable": true}, "name": "add_6", "inbound_nodes": [[["bn3c_branch2c", 0, 0, {}], ["activation_16", 0, 0, {}]]], "class_name": "Add"}, {"config": {"name": "activation_19", "trainable": true, "activation": "relu"}, "name": "activation_19", "inbound_nodes": [[["add_6", 0, 0, {}]]], "class_name": "Activation"}, {"config": {"activity_regularizer": null, "trainable": true, "use_bias": true, "strides": [1, 1], "kernel_size": [1, 1], "bias_regularizer": null, "kernel_constraint": null, "kernel_initializer": {"config": {"seed": 0, "distribution": "uniform", "scale": 1.0, "mode": "fan_avg"}, "class_name": "VarianceScaling"}, "name": "res3d_branch2a", "activation": "linear", "bias_constraint": null, "kernel_regularizer": null, "dilation_rate": [1, 1], "data_format": "channels_last", "bias_initializer": {"config": {}, "class_name": "Zeros"}, "filters": 128, "padding": "valid"}, "name": "res3d_branch2a", "inbound_nodes": [[["activation_19", 0, 0, {}]]], "class_name": "Conv2D"}, {"config": {"gamma_constraint": null, "gamma_regularizer": null, "beta_regularizer": null, "moving_mean_initializer": {"config": {}, "class_name": "Zeros"}, "name": "bn3d_branch2a", "scale": true, "beta_constraint": null, "center": true, "axis": 3, "momentum": 0.99, "beta_initializer": {"config": {}, "class_name": "Zeros"}, "trainable": true, "epsilon": 0.001, "gamma_initializer": {"config": {}, "class_name": "Ones"}, "moving_variance_initializer": {"config": {}, "class_name": "Ones"}}, "name": "bn3d_branch2a", "inbound_nodes": [[["res3d_branch2a", 0, 0, {}]]], "class_name": "BatchNormalization"}, {"config": {"name": "activation_20", "trainable": true, "activation": "relu"}, "name": "activation_20", "inbound_nodes": [[["bn3d_branch2a", 0, 0, {}]]], "class_name": "Activation"}, {"config": {"activity_regularizer": null, "trainable": true, "use_bias": true, "strides": [1, 1], "kernel_size": [3, 3], "bias_regularizer": null, "kernel_constraint": null, "kernel_initializer": {"config": {"seed": 0, "distribution": "uniform", "scale": 1.0, "mode": "fan_avg"}, "class_name": "VarianceScaling"}, "name": "res3d_branch2b", "activation": "linear", "bias_constraint": null, "kernel_regularizer": null, "dilation_rate": [1, 1], "data_format": "channels_last", "bias_initializer": {"config": {}, "class_name": "Zeros"}, "filters": 128, "padding": "same"}, "name": "res3d_branch2b", "inbound_nodes": [[["activation_20", 0, 0, {}]]], "class_name": "Conv2D"}, {"config": {"gamma_constraint": null, "gamma_regularizer": null, "beta_regularizer": null, "moving_mean_initializer": {"config": {}, "class_name": "Zeros"}, "name": "bn3d_branch2b", "scale": true, "beta_constraint": null, "center": true, "axis": 3, "momentum": 0.99, "beta_initializer": {"config": {}, "class_name": "Zeros"}, "trainable": true, "epsilon": 0.001, "gamma_initializer": {"config": {}, "class_name": "Ones"}, "moving_variance_initializer": {"config": {}, "class_name": "Ones"}}, "name": "bn3d_branch2b", "inbound_nodes": [[["res3d_branch2b", 0, 0, {}]]], "class_name": "BatchNormalization"}, {"config": {"name": "activation_21", "trainable": true, "activation": "relu"}, "name": "activation_21", "inbound_nodes": [[["bn3d_branch2b", 0, 0, {}]]], "class_name": "Activation"}, {"config": {"activity_regularizer": null, "trainable": true, "use_bias": true, "strides": [1, 1], "kernel_size": [1, 1], "bias_regularizer": null, "kernel_constraint": null, "kernel_initializer": {"config": {"seed": 0, "distribution": "uniform", "scale": 1.0, "mode": "fan_avg"}, "class_name": "VarianceScaling"}, "name": "res3d_branch2c", "activation": "linear", "bias_constraint": null, "kernel_regularizer": null, "dilation_rate": [1, 1], "data_format": "channels_last", "bias_initializer": {"config": {}, "class_name": "Zeros"}, "filters": 512, "padding": "valid"}, "name": "res3d_branch2c", "inbound_nodes": [[["activation_21", 0, 0, {}]]], "class_name": "Conv2D"}, {"config": {"gamma_constraint": null, "gamma_regularizer": null, "beta_regularizer": null, "moving_mean_initializer": {"config": {}, "class_name": "Zeros"}, "name": "bn3d_branch2c", "scale": true, "beta_constraint": null, "center": true, "axis": 3, "momentum": 0.99, "beta_initializer": {"config": {}, "class_name": "Zeros"}, "trainable": true, "epsilon": 0.001, "gamma_initializer": {"config": {}, "class_name": "Ones"}, "moving_variance_initializer": {"config": {}, "class_name": "Ones"}}, "name": "bn3d_branch2c", "inbound_nodes": [[["res3d_branch2c", 0, 0, {}]]], "class_name": "BatchNormalization"}, {"config": {"name": "add_7", "trainable": true}, "name": "add_7", "inbound_nodes": [[["bn3d_branch2c", 0, 0, {}], ["activation_19", 0, 0, {}]]], "class_name": "Add"}, {"config": {"name": "activation_22", "trainable": true, "activation": "relu"}, "name": "activation_22", "inbound_nodes": [[["add_7", 0, 0, {}]]], "class_name": "Activation"}, {"config": {"activity_regularizer": null, "trainable": true, "use_bias": true, "strides": [2, 2], "kernel_size": [1, 1], "bias_regularizer": null, "kernel_constraint": null, "kernel_initializer": {"config": {"seed": 0, "distribution": "uniform", "scale": 1.0, "mode": "fan_avg"}, "class_name": "VarianceScaling"}, "name": "res4a_branch2a", "activation": "linear", "bias_constraint": null, "kernel_regularizer": null, "dilation_rate": [1, 1], "data_format": "channels_last", "bias_initializer": {"config": {}, "class_name": "Zeros"}, "filters": 256, "padding": "valid"}, "name": "res4a_branch2a", "inbound_nodes": [[["activation_22", 0, 0, {}]]], "class_name": "Conv2D"}, {"config": {"gamma_constraint": null, "gamma_regularizer": null, "beta_regularizer": null, "moving_mean_initializer": {"config": {}, "class_name": "Zeros"}, "name": "bn4a_branch2a", "scale": true, "beta_constraint": null, "center": true, "axis": 3, "momentum": 0.99, "beta_initializer": {"config": {}, "class_name": "Zeros"}, "trainable": true, "epsilon": 0.001, "gamma_initializer": {"config": {}, "class_name": "Ones"}, "moving_variance_initializer": {"config": {}, "class_name": "Ones"}}, "name": "bn4a_branch2a", "inbound_nodes": [[["res4a_branch2a", 0, 0, {}]]], "class_name": "BatchNormalization"}, {"config": {"name": "activation_23", "trainable": true, "activation": "relu"}, "name": "activation_23", "inbound_nodes": [[["bn4a_branch2a", 0, 0, {}]]], "class_name": "Activation"}, {"config": {"activity_regularizer": null, "trainable": true, "use_bias": true, "strides": [1, 1], "kernel_size": [3, 3], "bias_regularizer": null, "kernel_constraint": null, "kernel_initializer": {"config": {"seed": 0, "distribution": "uniform", "scale": 1.0, "mode": "fan_avg"}, "class_name": "VarianceScaling"}, "name": "res4a_branch2b", "activation": "linear", "bias_constraint": null, "kernel_regularizer": null, "dilation_rate": [1, 1], "data_format": "channels_last", "bias_initializer": {"config": {}, "class_name": "Zeros"}, "filters": 256, "padding": "same"}, "name": "res4a_branch2b", "inbound_nodes": [[["activation_23", 0, 0, {}]]], "class_name": "Conv2D"}, {"config": {"gamma_constraint": null, "gamma_regularizer": null, "beta_regularizer": null, "moving_mean_initializer": {"config": {}, "class_name": "Zeros"}, "name": "bn4a_branch2b", "scale": true, "beta_constraint": null, "center": true, "axis": 3, "momentum": 0.99, "beta_initializer": {"config": {}, "class_name": "Zeros"}, "trainable": true, "epsilon": 0.001, "gamma_initializer": {"config": {}, "class_name": "Ones"}, "moving_variance_initializer": {"config": {}, "class_name": "Ones"}}, "name": "bn4a_branch2b", "inbound_nodes": [[["res4a_branch2b", 0, 0, {}]]], "class_name": "BatchNormalization"}, {"config": {"name": "activation_24", "trainable": true, "activation": "relu"}, "name": "activation_24", "inbound_nodes": [[["bn4a_branch2b", 0, 0, {}]]], "class_name": "Activation"}, {"config": {"activity_regularizer": null, "trainable": true, "use_bias": true, "strides": [1, 1], "kernel_size": [1, 1], "bias_regularizer": null, "kernel_constraint": null, "kernel_initializer": {"config": {"seed": 0, "distribution": "uniform", "scale": 1.0, "mode": "fan_avg"}, "class_name": "VarianceScaling"}, "name": "res4a_branch2c", "activation": "linear", "bias_constraint": null, "kernel_regularizer": null, "dilation_rate": [1, 1], "data_format": "channels_last", "bias_initializer": {"config": {}, "class_name": "Zeros"}, "filters": 1024, "padding": "valid"}, "name": "res4a_branch2c", "inbound_nodes": [[["activation_24", 0, 0, {}]]], "class_name": "Conv2D"}, {"config": {"activity_regularizer": null, "trainable": true, "use_bias": true, "strides": [2, 2], "kernel_size": [1, 1], "bias_regularizer": null, "kernel_constraint": null, "kernel_initializer": {"config": {"seed": 0, "distribution": "uniform", "scale": 1.0, "mode": "fan_avg"}, "class_name": "VarianceScaling"}, "name": "res4a_branch1", "activation": "linear", "bias_constraint": null, "kernel_regularizer": null, "dilation_rate": [1, 1], "data_format": "channels_last", "bias_initializer": {"config": {}, "class_name": "Zeros"}, "filters": 1024, "padding": "valid"}, "name": "res4a_branch1", "inbound_nodes": [[["activation_22", 0, 0, {}]]], "class_name": "Conv2D"}, {"config": {"gamma_constraint": null, "gamma_regularizer": null, "beta_regularizer": null, "moving_mean_initializer": {"config": {}, "class_name": "Zeros"}, "name": "bn4a_branch2c", "scale": true, "beta_constraint": null, "center": true, "axis": 3, "momentum": 0.99, "beta_initializer": {"config": {}, "class_name": "Zeros"}, "trainable": true, "epsilon": 0.001, "gamma_initializer": {"config": {}, "class_name": "Ones"}, "moving_variance_initializer": {"config": {}, "class_name": "Ones"}}, "name": "bn4a_branch2c", "inbound_nodes": [[["res4a_branch2c", 0, 0, {}]]], "class_name": "BatchNormalization"}, {"config": {"gamma_constraint": null, "gamma_regularizer": null, "beta_regularizer": null, "moving_mean_initializer": {"config": {}, "class_name": "Zeros"}, "name": "bn4a_branch1", "scale": true, "beta_constraint": null, "center": true, "axis": 3, "momentum": 0.99, "beta_initializer": {"config": {}, "class_name": "Zeros"}, "trainable": true, "epsilon": 0.001, "gamma_initializer": {"config": {}, "class_name": "Ones"}, "moving_variance_initializer": {"config": {}, "class_name": "Ones"}}, "name": "bn4a_branch1", "inbound_nodes": [[["res4a_branch1", 0, 0, {}]]], "class_name": "BatchNormalization"}, {"config": {"name": "add_8", "trainable": true}, "name": "add_8", "inbound_nodes": [[["bn4a_branch2c", 0, 0, {}], ["bn4a_branch1", 0, 0, {}]]], "class_name": "Add"}, {"config": {"name": "activation_25", "trainable": true, "activation": "relu"}, "name": "activation_25", "inbound_nodes": [[["add_8", 0, 0, {}]]], "class_name": "Activation"}, {"config": {"activity_regularizer": null, "trainable": true, "use_bias": true, "strides": [1, 1], "kernel_size": [1, 1], "bias_regularizer": null, "kernel_constraint": null, "kernel_initializer": {"config": {"seed": 0, "distribution": "uniform", "scale": 1.0, "mode": "fan_avg"}, "class_name": "VarianceScaling"}, "name": "res4b_branch2a", "activation": "linear", "bias_constraint": null, "kernel_regularizer": null, "dilation_rate": [1, 1], "data_format": "channels_last", "bias_initializer": {"config": {}, "class_name": "Zeros"}, "filters": 256, "padding": "valid"}, "name": "res4b_branch2a", "inbound_nodes": [[["activation_25", 0, 0, {}]]], "class_name": "Conv2D"}, {"config": {"gamma_constraint": null, "gamma_regularizer": null, "beta_regularizer": null, "moving_mean_initializer": {"config": {}, "class_name": "Zeros"}, "name": "bn4b_branch2a", "scale": true, "beta_constraint": null, "center": true, "axis": 3, "momentum": 0.99, "beta_initializer": {"config": {}, "class_name": "Zeros"}, "trainable": true, "epsilon": 0.001, "gamma_initializer": {"config": {}, "class_name": "Ones"}, "moving_variance_initializer": {"config": {}, "class_name": "Ones"}}, "name": "bn4b_branch2a", "inbound_nodes": [[["res4b_branch2a", 0, 0, {}]]], "class_name": "BatchNormalization"}, {"config": {"name": "activation_26", "trainable": true, "activation": "relu"}, "name": "activation_26", "inbound_nodes": [[["bn4b_branch2a", 0, 0, {}]]], "class_name": "Activation"}, {"config": {"activity_regularizer": null, "trainable": true, "use_bias": true, "strides": [1, 1], "kernel_size": [3, 3], "bias_regularizer": null, "kernel_constraint": null, "kernel_initializer": {"config": {"seed": 0, "distribution": "uniform", "scale": 1.0, "mode": "fan_avg"}, "class_name": "VarianceScaling"}, "name": "res4b_branch2b", "activation": "linear", "bias_constraint": null, "kernel_regularizer": null, "dilation_rate": [1, 1], "data_format": "channels_last", "bias_initializer": {"config": {}, "class_name": "Zeros"}, "filters": 256, "padding": "same"}, "name": "res4b_branch2b", "inbound_nodes": [[["activation_26", 0, 0, {}]]], "class_name": "Conv2D"}, {"config": {"gamma_constraint": null, "gamma_regularizer": null, "beta_regularizer": null, "moving_mean_initializer": {"config": {}, "class_name": "Zeros"}, "name": "bn4b_branch2b", "scale": true, "beta_constraint": null, "center": true, "axis": 3, "momentum": 0.99, "beta_initializer": {"config": {}, "class_name": "Zeros"}, "trainable": true, "epsilon": 0.001, "gamma_initializer": {"config": {}, "class_name": "Ones"}, "moving_variance_initializer": {"config": {}, "class_name": "Ones"}}, "name": "bn4b_branch2b", "inbound_nodes": [[["res4b_branch2b", 0, 0, {}]]], "class_name": "BatchNormalization"}, {"config": {"name": "activation_27", "trainable": true, "activation": "relu"}, "name": "activation_27", "inbound_nodes": [[["bn4b_branch2b", 0, 0, {}]]], "class_name": "Activation"}, {"config": {"activity_regularizer": null, "trainable": true, "use_bias": true, "strides": [1, 1], "kernel_size": [1, 1], "bias_regularizer": null, "kernel_constraint": null, "kernel_initializer": {"config": {"seed": 0, "distribution": "uniform", "scale": 1.0, "mode": "fan_avg"}, "class_name": "VarianceScaling"}, "name": "res4b_branch2c", "activation": "linear", "bias_constraint": null, "kernel_regularizer": null, "dilation_rate": [1, 1], "data_format": "channels_last", "bias_initializer": {"config": {}, "class_name": "Zeros"}, "filters": 1024, "padding": "valid"}, "name": "res4b_branch2c", "inbound_nodes": [[["activation_27", 0, 0, {}]]], "class_name": "Conv2D"}, {"config": {"gamma_constraint": null, "gamma_regularizer": null, "beta_regularizer": null, "moving_mean_initializer": {"config": {}, "class_name": "Zeros"}, "name": "bn4b_branch2c", "scale": true, "beta_constraint": null, "center": true, "axis": 3, "momentum": 0.99, "beta_initializer": {"config": {}, "class_name": "Zeros"}, "trainable": true, "epsilon": 0.001, "gamma_initializer": {"config": {}, "class_name": "Ones"}, "moving_variance_initializer": {"config": {}, "class_name": "Ones"}}, "name": "bn4b_branch2c", "inbound_nodes": [[["res4b_branch2c", 0, 0, {}]]], "class_name": "BatchNormalization"}, {"config": {"name": "add_9", "trainable": true}, "name": "add_9", "inbound_nodes": [[["bn4b_branch2c", 0, 0, {}], ["activation_25", 0, 0, {}]]], "class_name": "Add"}, {"config": {"name": "activation_28", "trainable": true, "activation": "relu"}, "name": "activation_28", "inbound_nodes": [[["add_9", 0, 0, {}]]], "class_name": "Activation"}, {"config": {"activity_regularizer": null, "trainable": true, "use_bias": true, "strides": [1, 1], "kernel_size": [1, 1], "bias_regularizer": null, "kernel_constraint": null, "kernel_initializer": {"config": {"seed": 0, "distribution": "uniform", "scale": 1.0, "mode": "fan_avg"}, "class_name": "VarianceScaling"}, "name": "res4c_branch2a", "activation": "linear", "bias_constraint": null, "kernel_regularizer": null, "dilation_rate": [1, 1], "data_format": "channels_last", "bias_initializer": {"config": {}, "class_name": "Zeros"}, "filters": 256, "padding": "valid"}, "name": "res4c_branch2a", "inbound_nodes": [[["activation_28", 0, 0, {}]]], "class_name": "Conv2D"}, {"config": {"gamma_constraint": null, "gamma_regularizer": null, "beta_regularizer": null, "moving_mean_initializer": {"config": {}, "class_name": "Zeros"}, "name": "bn4c_branch2a", "scale": true, "beta_constraint": null, "center": true, "axis": 3, "momentum": 0.99, "beta_initializer": {"config": {}, "class_name": "Zeros"}, "trainable": true, "epsilon": 0.001, "gamma_initializer": {"config": {}, "class_name": "Ones"}, "moving_variance_initializer": {"config": {}, "class_name": "Ones"}}, "name": "bn4c_branch2a", "inbound_nodes": [[["res4c_branch2a", 0, 0, {}]]], "class_name": "BatchNormalization"}, {"config": {"name": "activation_29", "trainable": true, "activation": "relu"}, "name": "activation_29", "inbound_nodes": [[["bn4c_branch2a", 0, 0, {}]]], "class_name": "Activation"}, {"config": {"activity_regularizer": null, "trainable": true, "use_bias": true, "strides": [1, 1], "kernel_size": [3, 3], "bias_regularizer": null, "kernel_constraint": null, "kernel_initializer": {"config": {"seed": 0, "distribution": "uniform", "scale": 1.0, "mode": "fan_avg"}, "class_name": "VarianceScaling"}, "name": "res4c_branch2b", "activation": "linear", "bias_constraint": null, "kernel_regularizer": null, "dilation_rate": [1, 1], "data_format": "channels_last", "bias_initializer": {"config": {}, "class_name": "Zeros"}, "filters": 256, "padding": "same"}, "name": "res4c_branch2b", "inbound_nodes": [[["activation_29", 0, 0, {}]]], "class_name": "Conv2D"}, {"config": {"gamma_constraint": null, "gamma_regularizer": null, "beta_regularizer": null, "moving_mean_initializer": {"config": {}, "class_name": "Zeros"}, "name": "bn4c_branch2b", "scale": true, "beta_constraint": null, "center": true, "axis": 3, "momentum": 0.99, "beta_initializer": {"config": {}, "class_name": "Zeros"}, "trainable": true, "epsilon": 0.001, "gamma_initializer": {"config": {}, "class_name": "Ones"}, "moving_variance_initializer": {"config": {}, "class_name": "Ones"}}, "name": "bn4c_branch2b", "inbound_nodes": [[["res4c_branch2b", 0, 0, {}]]], "class_name": "BatchNormalization"}, {"config": {"name": "activation_30", "trainable": true, "activation": "relu"}, "name": "activation_30", "inbound_nodes": [[["bn4c_branch2b", 0, 0, {}]]], "class_name": "Activation"}, {"config": {"activity_regularizer": null, "trainable": true, "use_bias": true, "strides": [1, 1], "kernel_size": [1, 1], "bias_regularizer": null, "kernel_constraint": null, "kernel_initializer": {"config": {"seed": 0, "distribution": "uniform", "scale": 1.0, "mode": "fan_avg"}, "class_name": "VarianceScaling"}, "name": "res4c_branch2c", "activation": "linear", "bias_constraint": null, "kernel_regularizer": null, "dilation_rate": [1, 1], "data_format": "channels_last", "bias_initializer": {"config": {}, "class_name": "Zeros"}, "filters": 1024, "padding": "valid"}, "name": "res4c_branch2c", "inbound_nodes": [[["activation_30", 0, 0, {}]]], "class_name": "Conv2D"}, {"config": {"gamma_constraint": null, "gamma_regularizer": null, "beta_regularizer": null, "moving_mean_initializer": {"config": {}, "class_name": "Zeros"}, "name": "bn4c_branch2c", "scale": true, "beta_constraint": null, "center": true, "axis": 3, "momentum": 0.99, "beta_initializer": {"config": {}, "class_name": "Zeros"}, "trainable": true, "epsilon": 0.001, "gamma_initializer": {"config": {}, "class_name": "Ones"}, "moving_variance_initializer": {"config": {}, "class_name": "Ones"}}, "name": "bn4c_branch2c", "inbound_nodes": [[["res4c_branch2c", 0, 0, {}]]], "class_name": "BatchNormalization"}, {"config": {"name": "add_10", "trainable": true}, "name": "add_10", "inbound_nodes": [[["bn4c_branch2c", 0, 0, {}], ["activation_28", 0, 0, {}]]], "class_name": "Add"}, {"config": {"name": "activation_31", "trainable": true, "activation": "relu"}, "name": "activation_31", "inbound_nodes": [[["add_10", 0, 0, {}]]], "class_name": "Activation"}, {"config": {"activity_regularizer": null, "trainable": true, "use_bias": true, "strides": [1, 1], "kernel_size": [1, 1], "bias_regularizer": null, "kernel_constraint": null, "kernel_initializer": {"config": {"seed": 0, "distribution": "uniform", "scale": 1.0, "mode": "fan_avg"}, "class_name": "VarianceScaling"}, "name": "res4d_branch2a", "activation": "linear", "bias_constraint": null, "kernel_regularizer": null, "dilation_rate": [1, 1], "data_format": "channels_last", "bias_initializer": {"config": {}, "class_name": "Zeros"}, "filters": 256, "padding": "valid"}, "name": "res4d_branch2a", "inbound_nodes": [[["activation_31", 0, 0, {}]]], "class_name": "Conv2D"}, {"config": {"gamma_constraint": null, "gamma_regularizer": null, "beta_regularizer": null, "moving_mean_initializer": {"config": {}, "class_name": "Zeros"}, "name": "bn4d_branch2a", "scale": true, "beta_constraint": null, "center": true, "axis": 3, "momentum": 0.99, "beta_initializer": {"config": {}, "class_name": "Zeros"}, "trainable": true, "epsilon": 0.001, "gamma_initializer": {"config": {}, "class_name": "Ones"}, "moving_variance_initializer": {"config": {}, "class_name": "Ones"}}, "name": "bn4d_branch2a", "inbound_nodes": [[["res4d_branch2a", 0, 0, {}]]], "class_name": "BatchNormalization"}, {"config": {"name": "activation_32", "trainable": true, "activation": "relu"}, "name": "activation_32", "inbound_nodes": [[["bn4d_branch2a", 0, 0, {}]]], "class_name": "Activation"}, {"config": {"activity_regularizer": null, "trainable": true, "use_bias": true, "strides": [1, 1], "kernel_size": [3, 3], "bias_regularizer": null, "kernel_constraint": null, "kernel_initializer": {"config": {"seed": 0, "distribution": "uniform", "scale": 1.0, "mode": "fan_avg"}, "class_name": "VarianceScaling"}, "name": "res4d_branch2b", "activation": "linear", "bias_constraint": null, "kernel_regularizer": null, "dilation_rate": [1, 1], "data_format": "channels_last", "bias_initializer": {"config": {}, "class_name": "Zeros"}, "filters": 256, "padding": "same"}, "name": "res4d_branch2b", "inbound_nodes": [[["activation_32", 0, 0, {}]]], "class_name": "Conv2D"}, {"config": {"gamma_constraint": null, "gamma_regularizer": null, "beta_regularizer": null, "moving_mean_initializer": {"config": {}, "class_name": "Zeros"}, "name": "bn4d_branch2b", "scale": true, "beta_constraint": null, "center": true, "axis": 3, "momentum": 0.99, "beta_initializer": {"config": {}, "class_name": "Zeros"}, "trainable": true, "epsilon": 0.001, "gamma_initializer": {"config": {}, "class_name": "Ones"}, "moving_variance_initializer": {"config": {}, "class_name": "Ones"}}, "name": "bn4d_branch2b", "inbound_nodes": [[["res4d_branch2b", 0, 0, {}]]], "class_name": "BatchNormalization"}, {"config": {"name": "activation_33", "trainable": true, "activation": "relu"}, "name": "activation_33", "inbound_nodes": [[["bn4d_branch2b", 0, 0, {}]]], "class_name": "Activation"}, {"config": {"activity_regularizer": null, "trainable": true, "use_bias": true, "strides": [1, 1], "kernel_size": [1, 1], "bias_regularizer": null, "kernel_constraint": null, "kernel_initializer": {"config": {"seed": 0, "distribution": "uniform", "scale": 1.0, "mode": "fan_avg"}, "class_name": "VarianceScaling"}, "name": "res4d_branch2c", "activation": "linear", "bias_constraint": null, "kernel_regularizer": null, "dilation_rate": [1, 1], "data_format": "channels_last", "bias_initializer": {"config": {}, "class_name": "Zeros"}, "filters": 1024, "padding": "valid"}, "name": "res4d_branch2c", "inbound_nodes": [[["activation_33", 0, 0, {}]]], "class_name": "Conv2D"}, {"config": {"gamma_constraint": null, "gamma_regularizer": null, "beta_regularizer": null, "moving_mean_initializer": {"config": {}, "class_name": "Zeros"}, "name": "bn4d_branch2c", "scale": true, "beta_constraint": null, "center": true, "axis": 3, "momentum": 0.99, "beta_initializer": {"config": {}, "class_name": "Zeros"}, "trainable": true, "epsilon": 0.001, "gamma_initializer": {"config": {}, "class_name": "Ones"}, "moving_variance_initializer": {"config": {}, "class_name": "Ones"}}, "name": "bn4d_branch2c", "inbound_nodes": [[["res4d_branch2c", 0, 0, {}]]], "class_name": "BatchNormalization"}, {"config": {"name": "add_11", "trainable": true}, "name": "add_11", "inbound_nodes": [[["bn4d_branch2c", 0, 0, {}], ["activation_31", 0, 0, {}]]], "class_name": "Add"}, {"config": {"name": "activation_34", "trainable": true, "activation": "relu"}, "name": "activation_34", "inbound_nodes": [[["add_11", 0, 0, {}]]], "class_name": "Activation"}, {"config": {"activity_regularizer": null, "trainable": true, "use_bias": true, "strides": [1, 1], "kernel_size": [1, 1], "bias_regularizer": null, "kernel_constraint": null, "kernel_initializer": {"config": {"seed": 0, "distribution": "uniform", "scale": 1.0, "mode": "fan_avg"}, "class_name": "VarianceScaling"}, "name": "res4e_branch2a", "activation": "linear", "bias_constraint": null, "kernel_regularizer": null, "dilation_rate": [1, 1], "data_format": "channels_last", "bias_initializer": {"config": {}, "class_name": "Zeros"}, "filters": 256, "padding": "valid"}, "name": "res4e_branch2a", "inbound_nodes": [[["activation_34", 0, 0, {}]]], "class_name": "Conv2D"}, {"config": {"gamma_constraint": null, "gamma_regularizer": null, "beta_regularizer": null, "moving_mean_initializer": {"config": {}, "class_name": "Zeros"}, "name": "bn4e_branch2a", "scale": true, "beta_constraint": null, "center": true, "axis": 3, "momentum": 0.99, "beta_initializer": {"config": {}, "class_name": "Zeros"}, "trainable": true, "epsilon": 0.001, "gamma_initializer": {"config": {}, "class_name": "Ones"}, "moving_variance_initializer": {"config": {}, "class_name": "Ones"}}, "name": "bn4e_branch2a", "inbound_nodes": [[["res4e_branch2a", 0, 0, {}]]], "class_name": "BatchNormalization"}, {"config": {"name": "activation_35", "trainable": true, "activation": "relu"}, "name": "activation_35", "inbound_nodes": [[["bn4e_branch2a", 0, 0, {}]]], "class_name": "Activation"}, {"config": {"activity_regularizer": null, "trainable": true, "use_bias": true, "strides": [1, 1], "kernel_size": [3, 3], "bias_regularizer": null, "kernel_constraint": null, "kernel_initializer": {"config": {"seed": 0, "distribution": "uniform", "scale": 1.0, "mode": "fan_avg"}, "class_name": "VarianceScaling"}, "name": "res4e_branch2b", "activation": "linear", "bias_constraint": null, "kernel_regularizer": null, "dilation_rate": [1, 1], "data_format": "channels_last", "bias_initializer": {"config": {}, "class_name": "Zeros"}, "filters": 256, "padding": "same"}, "name": "res4e_branch2b", "inbound_nodes": [[["activation_35", 0, 0, {}]]], "class_name": "Conv2D"}, {"config": {"gamma_constraint": null, "gamma_regularizer": null, "beta_regularizer": null, "moving_mean_initializer": {"config": {}, "class_name": "Zeros"}, "name": "bn4e_branch2b", "scale": true, "beta_constraint": null, "center": true, "axis": 3, "momentum": 0.99, "beta_initializer": {"config": {}, "class_name": "Zeros"}, "trainable": true, "epsilon": 0.001, "gamma_initializer": {"config": {}, "class_name": "Ones"}, "moving_variance_initializer": {"config": {}, "class_name": "Ones"}}, "name": "bn4e_branch2b", "inbound_nodes": [[["res4e_branch2b", 0, 0, {}]]], "class_name": "BatchNormalization"}, {"config": {"name": "activation_36", "trainable": true, "activation": "relu"}, "name": "activation_36", "inbound_nodes": [[["bn4e_branch2b", 0, 0, {}]]], "class_name": "Activation"}, {"config": {"activity_regularizer": null, "trainable": true, "use_bias": true, "strides": [1, 1], "kernel_size": [1, 1], "bias_regularizer": null, "kernel_constraint": null, "kernel_initializer": {"config": {"seed": 0, "distribution": "uniform", "scale": 1.0, "mode": "fan_avg"}, "class_name": "VarianceScaling"}, "name": "res4e_branch2c", "activation": "linear", "bias_constraint": null, "kernel_regularizer": null, "dilation_rate": [1, 1], "data_format": "channels_last", "bias_initializer": {"config": {}, "class_name": "Zeros"}, "filters": 1024, "padding": "valid"}, "name": "res4e_branch2c", "inbound_nodes": [[["activation_36", 0, 0, {}]]], "class_name": "Conv2D"}, {"config": {"gamma_constraint": null, "gamma_regularizer": null, "beta_regularizer": null, "moving_mean_initializer": {"config": {}, "class_name": "Zeros"}, "name": "bn4e_branch2c", "scale": true, "beta_constraint": null, "center": true, "axis": 3, "momentum": 0.99, "beta_initializer": {"config": {}, "class_name": "Zeros"}, "trainable": true, "epsilon": 0.001, "gamma_initializer": {"config": {}, "class_name": "Ones"}, "moving_variance_initializer": {"config": {}, "class_name": "Ones"}}, "name": "bn4e_branch2c", "inbound_nodes": [[["res4e_branch2c", 0, 0, {}]]], "class_name": "BatchNormalization"}, {"config": {"name": "add_12", "trainable": true}, "name": "add_12", "inbound_nodes": [[["bn4e_branch2c", 0, 0, {}], ["activation_34", 0, 0, {}]]], "class_name": "Add"}, {"config": {"name": "activation_37", "trainable": true, "activation": "relu"}, "name": "activation_37", "inbound_nodes": [[["add_12", 0, 0, {}]]], "class_name": "Activation"}, {"config": {"activity_regularizer": null, "trainable": true, "use_bias": true, "strides": [1, 1], "kernel_size": [1, 1], "bias_regularizer": null, "kernel_constraint": null, "kernel_initializer": {"config": {"seed": 0, "distribution": "uniform", "scale": 1.0, "mode": "fan_avg"}, "class_name": "VarianceScaling"}, "name": "res4f_branch2a", "activation": "linear", "bias_constraint": null, "kernel_regularizer": null, "dilation_rate": [1, 1], "data_format": "channels_last", "bias_initializer": {"config": {}, "class_name": "Zeros"}, "filters": 256, "padding": "valid"}, "name": "res4f_branch2a", "inbound_nodes": [[["activation_37", 0, 0, {}]]], "class_name": "Conv2D"}, {"config": {"gamma_constraint": null, "gamma_regularizer": null, "beta_regularizer": null, "moving_mean_initializer": {"config": {}, "class_name": "Zeros"}, "name": "bn4f_branch2a", "scale": true, "beta_constraint": null, "center": true, "axis": 3, "momentum": 0.99, "beta_initializer": {"config": {}, "class_name": "Zeros"}, "trainable": true, "epsilon": 0.001, "gamma_initializer": {"config": {}, "class_name": "Ones"}, "moving_variance_initializer": {"config": {}, "class_name": "Ones"}}, "name": "bn4f_branch2a", "inbound_nodes": [[["res4f_branch2a", 0, 0, {}]]], "class_name": "BatchNormalization"}, {"config": {"name": "activation_38", "trainable": true, "activation": "relu"}, "name": "activation_38", "inbound_nodes": [[["bn4f_branch2a", 0, 0, {}]]], "class_name": "Activation"}, {"config": {"activity_regularizer": null, "trainable": true, "use_bias": true, "strides": [1, 1], "kernel_size": [3, 3], "bias_regularizer": null, "kernel_constraint": null, "kernel_initializer": {"config": {"seed": 0, "distribution": "uniform", "scale": 1.0, "mode": "fan_avg"}, "class_name": "VarianceScaling"}, "name": "res4f_branch2b", "activation": "linear", "bias_constraint": null, "kernel_regularizer": null, "dilation_rate": [1, 1], "data_format": "channels_last", "bias_initializer": {"config": {}, "class_name": "Zeros"}, "filters": 256, "padding": "same"}, "name": "res4f_branch2b", "inbound_nodes": [[["activation_38", 0, 0, {}]]], "class_name": "Conv2D"}, {"config": {"gamma_constraint": null, "gamma_regularizer": null, "beta_regularizer": null, "moving_mean_initializer": {"config": {}, "class_name": "Zeros"}, "name": "bn4f_branch2b", "scale": true, "beta_constraint": null, "center": true, "axis": 3, "momentum": 0.99, "beta_initializer": {"config": {}, "class_name": "Zeros"}, "trainable": true, "epsilon": 0.001, "gamma_initializer": {"config": {}, "class_name": "Ones"}, "moving_variance_initializer": {"config": {}, "class_name": "Ones"}}, "name": "bn4f_branch2b", "inbound_nodes": [[["res4f_branch2b", 0, 0, {}]]], "class_name": "BatchNormalization"}, {"config": {"name": "activation_39", "trainable": true, "activation": "relu"}, "name": "activation_39", "inbound_nodes": [[["bn4f_branch2b", 0, 0, {}]]], "class_name": "Activation"}, {"config": {"activity_regularizer": null, "trainable": true, "use_bias": true, "strides": [1, 1], "kernel_size": [1, 1], "bias_regularizer": null, "kernel_constraint": null, "kernel_initializer": {"config": {"seed": 0, "distribution": "uniform", "scale": 1.0, "mode": "fan_avg"}, "class_name": "VarianceScaling"}, "name": "res4f_branch2c", "activation": "linear", "bias_constraint": null, "kernel_regularizer": null, "dilation_rate": [1, 1], "data_format": "channels_last", "bias_initializer": {"config": {}, "class_name": "Zeros"}, "filters": 1024, "padding": "valid"}, "name": "res4f_branch2c", "inbound_nodes": [[["activation_39", 0, 0, {}]]], "class_name": "Conv2D"}, {"config": {"gamma_constraint": null, "gamma_regularizer": null, "beta_regularizer": null, "moving_mean_initializer": {"config": {}, "class_name": "Zeros"}, "name": "bn4f_branch2c", "scale": true, "beta_constraint": null, "center": true, "axis": 3, "momentum": 0.99, "beta_initializer": {"config": {}, "class_name": "Zeros"}, "trainable": true, "epsilon": 0.001, "gamma_initializer": {"config": {}, "class_name": "Ones"}, "moving_variance_initializer": {"config": {}, "class_name": "Ones"}}, "name": "bn4f_branch2c", "inbound_nodes": [[["res4f_branch2c", 0, 0, {}]]], "class_name": "BatchNormalization"}, {"config": {"name": "add_13", "trainable": true}, "name": "add_13", "inbound_nodes": [[["bn4f_branch2c", 0, 0, {}], ["activation_37", 0, 0, {}]]], "class_name": "Add"}, {"config": {"name": "activation_40", "trainable": true, "activation": "relu"}, "name": "activation_40", "inbound_nodes": [[["add_13", 0, 0, {}]]], "class_name": "Activation"}, {"config": {"activity_regularizer": null, "trainable": true, "use_bias": true, "strides": [2, 2], "kernel_size": [1, 1], "bias_regularizer": null, "kernel_constraint": null, "kernel_initializer": {"config": {"seed": 0, "distribution": "uniform", "scale": 1.0, "mode": "fan_avg"}, "class_name": "VarianceScaling"}, "name": "res5a_branch2a", "activation": "linear", "bias_constraint": null, "kernel_regularizer": null, "dilation_rate": [1, 1], "data_format": "channels_last", "bias_initializer": {"config": {}, "class_name": "Zeros"}, "filters": 512, "padding": "valid"}, "name": "res5a_branch2a", "inbound_nodes": [[["activation_40", 0, 0, {}]]], "class_name": "Conv2D"}, {"config": {"gamma_constraint": null, "gamma_regularizer": null, "beta_regularizer": null, "moving_mean_initializer": {"config": {}, "class_name": "Zeros"}, "name": "bn5a_branch2a", "scale": true, "beta_constraint": null, "center": true, "axis": 3, "momentum": 0.99, "beta_initializer": {"config": {}, "class_name": "Zeros"}, "trainable": true, "epsilon": 0.001, "gamma_initializer": {"config": {}, "class_name": "Ones"}, "moving_variance_initializer": {"config": {}, "class_name": "Ones"}}, "name": "bn5a_branch2a", "inbound_nodes": [[["res5a_branch2a", 0, 0, {}]]], "class_name": "BatchNormalization"}, {"config": {"name": "activation_41", "trainable": true, "activation": "relu"}, "name": "activation_41", "inbound_nodes": [[["bn5a_branch2a", 0, 0, {}]]], "class_name": "Activation"}, {"config": {"activity_regularizer": null, "trainable": true, "use_bias": true, "strides": [1, 1], "kernel_size": [3, 3], "bias_regularizer": null, "kernel_constraint": null, "kernel_initializer": {"config": {"seed": 0, "distribution": "uniform", "scale": 1.0, "mode": "fan_avg"}, "class_name": "VarianceScaling"}, "name": "res5a_branch2b", "activation": "linear", "bias_constraint": null, "kernel_regularizer": null, "dilation_rate": [1, 1], "data_format": "channels_last", "bias_initializer": {"config": {}, "class_name": "Zeros"}, "filters": 512, "padding": "same"}, "name": "res5a_branch2b", "inbound_nodes": [[["activation_41", 0, 0, {}]]], "class_name": "Conv2D"}, {"config": {"gamma_constraint": null, "gamma_regularizer": null, "beta_regularizer": null, "moving_mean_initializer": {"config": {}, "class_name": "Zeros"}, "name": "bn5a_branch2b", "scale": true, "beta_constraint": null, "center": true, "axis": 3, "momentum": 0.99, "beta_initializer": {"config": {}, "class_name": "Zeros"}, "trainable": true, "epsilon": 0.001, "gamma_initializer": {"config": {}, "class_name": "Ones"}, "moving_variance_initializer": {"config": {}, "class_name": "Ones"}}, "name": "bn5a_branch2b", "inbound_nodes": [[["res5a_branch2b", 0, 0, {}]]], "class_name": "BatchNormalization"}, {"config": {"name": "activation_42", "trainable": true, "activation": "relu"}, "name": "activation_42", "inbound_nodes": [[["bn5a_branch2b", 0, 0, {}]]], "class_name": "Activation"}, {"config": {"activity_regularizer": null, "trainable": true, "use_bias": true, "strides": [1, 1], "kernel_size": [1, 1], "bias_regularizer": null, "kernel_constraint": null, "kernel_initializer": {"config": {"seed": 0, "distribution": "uniform", "scale": 1.0, "mode": "fan_avg"}, "class_name": "VarianceScaling"}, "name": "res5a_branch2c", "activation": "linear", "bias_constraint": null, "kernel_regularizer": null, "dilation_rate": [1, 1], "data_format": "channels_last", "bias_initializer": {"config": {}, "class_name": "Zeros"}, "filters": 2048, "padding": "valid"}, "name": "res5a_branch2c", "inbound_nodes": [[["activation_42", 0, 0, {}]]], "class_name": "Conv2D"}, {"config": {"activity_regularizer": null, "trainable": true, "use_bias": true, "strides": [2, 2], "kernel_size": [1, 1], "bias_regularizer": null, "kernel_constraint": null, "kernel_initializer": {"config": {"seed": 0, "distribution": "uniform", "scale": 1.0, "mode": "fan_avg"}, "class_name": "VarianceScaling"}, "name": "res5a_branch1", "activation": "linear", "bias_constraint": null, "kernel_regularizer": null, "dilation_rate": [1, 1], "data_format": "channels_last", "bias_initializer": {"config": {}, "class_name": "Zeros"}, "filters": 2048, "padding": "valid"}, "name": "res5a_branch1", "inbound_nodes": [[["activation_40", 0, 0, {}]]], "class_name": "Conv2D"}, {"config": {"gamma_constraint": null, "gamma_regularizer": null, "beta_regularizer": null, "moving_mean_initializer": {"config": {}, "class_name": "Zeros"}, "name": "bn5a_branch2c", "scale": true, "beta_constraint": null, "center": true, "axis": 3, "momentum": 0.99, "beta_initializer": {"config": {}, "class_name": "Zeros"}, "trainable": true, "epsilon": 0.001, "gamma_initializer": {"config": {}, "class_name": "Ones"}, "moving_variance_initializer": {"config": {}, "class_name": "Ones"}}, "name": "bn5a_branch2c", "inbound_nodes": [[["res5a_branch2c", 0, 0, {}]]], "class_name": "BatchNormalization"}, {"config": {"gamma_constraint": null, "gamma_regularizer": null, "beta_regularizer": null, "moving_mean_initializer": {"config": {}, "class_name": "Zeros"}, "name": "bn5a_branch1", "scale": true, "beta_constraint": null, "center": true, "axis": 3, "momentum": 0.99, "beta_initializer": {"config": {}, "class_name": "Zeros"}, "trainable": true, "epsilon": 0.001, "gamma_initializer": {"config": {}, "class_name": "Ones"}, "moving_variance_initializer": {"config": {}, "class_name": "Ones"}}, "name": "bn5a_branch1", "inbound_nodes": [[["res5a_branch1", 0, 0, {}]]], "class_name": "BatchNormalization"}, {"config": {"name": "add_14", "trainable": true}, "name": "add_14", "inbound_nodes": [[["bn5a_branch2c", 0, 0, {}], ["bn5a_branch1", 0, 0, {}]]], "class_name": "Add"}, {"config": {"name": "activation_43", "trainable": true, "activation": "relu"}, "name": "activation_43", "inbound_nodes": [[["add_14", 0, 0, {}]]], "class_name": "Activation"}, {"config": {"activity_regularizer": null, "trainable": true, "use_bias": true, "strides": [1, 1], "kernel_size": [1, 1], "bias_regularizer": null, "kernel_constraint": null, "kernel_initializer": {"config": {"seed": 0, "distribution": "uniform", "scale": 1.0, "mode": "fan_avg"}, "class_name": "VarianceScaling"}, "name": "res5b_branch2a", "activation": "linear", "bias_constraint": null, "kernel_regularizer": null, "dilation_rate": [1, 1], "data_format": "channels_last", "bias_initializer": {"config": {}, "class_name": "Zeros"}, "filters": 512, "padding": "valid"}, "name": "res5b_branch2a", "inbound_nodes": [[["activation_43", 0, 0, {}]]], "class_name": "Conv2D"}, {"config": {"gamma_constraint": null, "gamma_regularizer": null, "beta_regularizer": null, "moving_mean_initializer": {"config": {}, "class_name": "Zeros"}, "name": "bn5b_branch2a", "scale": true, "beta_constraint": null, "center": true, "axis": 3, "momentum": 0.99, "beta_initializer": {"config": {}, "class_name": "Zeros"}, "trainable": true, "epsilon": 0.001, "gamma_initializer": {"config": {}, "class_name": "Ones"}, "moving_variance_initializer": {"config": {}, "class_name": "Ones"}}, "name": "bn5b_branch2a", "inbound_nodes": [[["res5b_branch2a", 0, 0, {}]]], "class_name": "BatchNormalization"}, {"config": {"name": "activation_44", "trainable": true, "activation": "relu"}, "name": "activation_44", "inbound_nodes": [[["bn5b_branch2a", 0, 0, {}]]], "class_name": "Activation"}, {"config": {"activity_regularizer": null, "trainable": true, "use_bias": true, "strides": [1, 1], "kernel_size": [3, 3], "bias_regularizer": null, "kernel_constraint": null, "kernel_initializer": {"config": {"seed": 0, "distribution": "uniform", "scale": 1.0, "mode": "fan_avg"}, "class_name": "VarianceScaling"}, "name": "res5b_branch2b", "activation": "linear", "bias_constraint": null, "kernel_regularizer": null, "dilation_rate": [1, 1], "data_format": "channels_last", "bias_initializer": {"config": {}, "class_name": "Zeros"}, "filters": 512, "padding": "same"}, "name": "res5b_branch2b", "inbound_nodes": [[["activation_44", 0, 0, {}]]], "class_name": "Conv2D"}, {"config": {"gamma_constraint": null, "gamma_regularizer": null, "beta_regularizer": null, "moving_mean_initializer": {"config": {}, "class_name": "Zeros"}, "name": "bn5b_branch2b", "scale": true, "beta_constraint": null, "center": true, "axis": 3, "momentum": 0.99, "beta_initializer": {"config": {}, "class_name": "Zeros"}, "trainable": true, "epsilon": 0.001, "gamma_initializer": {"config": {}, "class_name": "Ones"}, "moving_variance_initializer": {"config": {}, "class_name": "Ones"}}, "name": "bn5b_branch2b", "inbound_nodes": [[["res5b_branch2b", 0, 0, {}]]], "class_name": "BatchNormalization"}, {"config": {"name": "activation_45", "trainable": true, "activation": "relu"}, "name": "activation_45", "inbound_nodes": [[["bn5b_branch2b", 0, 0, {}]]], "class_name": "Activation"}, {"config": {"activity_regularizer": null, "trainable": true, "use_bias": true, "strides": [1, 1], "kernel_size": [1, 1], "bias_regularizer": null, "kernel_constraint": null, "kernel_initializer": {"config": {"seed": 0, "distribution": "uniform", "scale": 1.0, "mode": "fan_avg"}, "class_name": "VarianceScaling"}, "name": "res5b_branch2c", "activation": "linear", "bias_constraint": null, "kernel_regularizer": null, "dilation_rate": [1, 1], "data_format": "channels_last", "bias_initializer": {"config": {}, "class_name": "Zeros"}, "filters": 2048, "padding": "valid"}, "name": "res5b_branch2c", "inbound_nodes": [[["activation_45", 0, 0, {}]]], "class_name": "Conv2D"}, {"config": {"gamma_constraint": null, "gamma_regularizer": null, "beta_regularizer": null, "moving_mean_initializer": {"config": {}, "class_name": "Zeros"}, "name": "bn5b_branch2c", "scale": true, "beta_constraint": null, "center": true, "axis": 3, "momentum": 0.99, "beta_initializer": {"config": {}, "class_name": "Zeros"}, "trainable": true, "epsilon": 0.001, "gamma_initializer": {"config": {}, "class_name": "Ones"}, "moving_variance_initializer": {"config": {}, "class_name": "Ones"}}, "name": "bn5b_branch2c", "inbound_nodes": [[["res5b_branch2c", 0, 0, {}]]], "class_name": "BatchNormalization"}, {"config": {"name": "add_15", "trainable": true}, "name": "add_15", "inbound_nodes": [[["bn5b_branch2c", 0, 0, {}], ["activation_43", 0, 0, {}]]], "class_name": "Add"}, {"config": {"name": "activation_46", "trainable": true, "activation": "relu"}, "name": "activation_46", "inbound_nodes": [[["add_15", 0, 0, {}]]], "class_name": "Activation"}, {"config": {"activity_regularizer": null, "trainable": true, "use_bias": true, "strides": [1, 1], "kernel_size": [1, 1], "bias_regularizer": null, "kernel_constraint": null, "kernel_initializer": {"config": {"seed": 0, "distribution": "uniform", "scale": 1.0, "mode": "fan_avg"}, "class_name": "VarianceScaling"}, "name": "res5c_branch2a", "activation": "linear", "bias_constraint": null, "kernel_regularizer": null, "dilation_rate": [1, 1], "data_format": "channels_last", "bias_initializer": {"config": {}, "class_name": "Zeros"}, "filters": 512, "padding": "valid"}, "name": "res5c_branch2a", "inbound_nodes": [[["activation_46", 0, 0, {}]]], "class_name": "Conv2D"}, {"config": {"gamma_constraint": null, "gamma_regularizer": null, "beta_regularizer": null, "moving_mean_initializer": {"config": {}, "class_name": "Zeros"}, "name": "bn5c_branch2a", "scale": true, "beta_constraint": null, "center": true, "axis": 3, "momentum": 0.99, "beta_initializer": {"config": {}, "class_name": "Zeros"}, "trainable": true, "epsilon": 0.001, "gamma_initializer": {"config": {}, "class_name": "Ones"}, "moving_variance_initializer": {"config": {}, "class_name": "Ones"}}, "name": "bn5c_branch2a", "inbound_nodes": [[["res5c_branch2a", 0, 0, {}]]], "class_name": "BatchNormalization"}, {"config": {"name": "activation_47", "trainable": true, "activation": "relu"}, "name": "activation_47", "inbound_nodes": [[["bn5c_branch2a", 0, 0, {}]]], "class_name": "Activation"}, {"config": {"activity_regularizer": null, "trainable": true, "use_bias": true, "strides": [1, 1], "kernel_size": [3, 3], "bias_regularizer": null, "kernel_constraint": null, "kernel_initializer": {"config": {"seed": 0, "distribution": "uniform", "scale": 1.0, "mode": "fan_avg"}, "class_name": "VarianceScaling"}, "name": "res5c_branch2b", "activation": "linear", "bias_constraint": null, "kernel_regularizer": null, "dilation_rate": [1, 1], "data_format": "channels_last", "bias_initializer": {"config": {}, "class_name": "Zeros"}, "filters": 512, "padding": "same"}, "name": "res5c_branch2b", "inbound_nodes": [[["activation_47", 0, 0, {}]]], "class_name": "Conv2D"}, {"config": {"gamma_constraint": null, "gamma_regularizer": null, "beta_regularizer": null, "moving_mean_initializer": {"config": {}, "class_name": "Zeros"}, "name": "bn5c_branch2b", "scale": true, "beta_constraint": null, "center": true, "axis": 3, "momentum": 0.99, "beta_initializer": {"config": {}, "class_name": "Zeros"}, "trainable": true, "epsilon": 0.001, "gamma_initializer": {"config": {}, "class_name": "Ones"}, "moving_variance_initializer": {"config": {}, "class_name": "Ones"}}, "name": "bn5c_branch2b", "inbound_nodes": [[["res5c_branch2b", 0, 0, {}]]], "class_name": "BatchNormalization"}, {"config": {"name": "activation_48", "trainable": true, "activation": "relu"}, "name": "activation_48", "inbound_nodes": [[["bn5c_branch2b", 0, 0, {}]]], "class_name": "Activation"}, {"config": {"activity_regularizer": null, "trainable": true, "use_bias": true, "strides": [1, 1], "kernel_size": [1, 1], "bias_regularizer": null, "kernel_constraint": null, "kernel_initializer": {"config": {"seed": 0, "distribution": "uniform", "scale": 1.0, "mode": "fan_avg"}, "class_name": "VarianceScaling"}, "name": "res5c_branch2c", "activation": "linear", "bias_constraint": null, "kernel_regularizer": null, "dilation_rate": [1, 1], "data_format": "channels_last", "bias_initializer": {"config": {}, "class_name": "Zeros"}, "filters": 2048, "padding": "valid"}, "name": "res5c_branch2c", "inbound_nodes": [[["activation_48", 0, 0, {}]]], "class_name": "Conv2D"}, {"config": {"gamma_constraint": null, "gamma_regularizer": null, "beta_regularizer": null, "moving_mean_initializer": {"config": {}, "class_name": "Zeros"}, "name": "bn5c_branch2c", "scale": true, "beta_constraint": null, "center": true, "axis": 3, "momentum": 0.99, "beta_initializer": {"config": {}, "class_name": "Zeros"}, "trainable": true, "epsilon": 0.001, "gamma_initializer": {"config": {}, "class_name": "Ones"}, "moving_variance_initializer": {"config": {}, "class_name": "Ones"}}, "name": "bn5c_branch2c", "inbound_nodes": [[["res5c_branch2c", 0, 0, {}]]], "class_name": "BatchNormalization"}, {"config": {"name": "add_16", "trainable": true}, "name": "add_16", "inbound_nodes": [[["bn5c_branch2c", 0, 0, {}], ["activation_46", 0, 0, {}]]], "class_name": "Add"}, {"config": {"name": "activation_49", "trainable": true, "activation": "relu"}, "name": "activation_49", "inbound_nodes": [[["add_16", 0, 0, {}]]], "class_name": "Activation"}, {"config": {"name": "average_pooling2d_1", "trainable": true, "pool_size": [2, 2], "strides": [2, 2], "data_format": "channels_last", "padding": "valid"}, "name": "average_pooling2d_1", "inbound_nodes": [[["activation_49", 0, 0, {}]]], "class_name": "AveragePooling2D"}, {"config": {"name": "flatten_1", "trainable": true}, "name": "flatten_1", "inbound_nodes": [[["average_pooling2d_1", 0, 0, {}]]], "class_name": "Flatten"}, {"config": {"activity_regularizer": null, "units": 26, "use_bias": true, "bias_initializer": {"config": {}, "class_name": "Zeros"}, "kernel_constraint": null, "name": "fc26", "activation": "softmax", "bias_constraint": null, "kernel_regularizer": null, "trainable": true, "bias_regularizer": null, "kernel_initializer": {"config": {"seed": 0, "distribution": "uniform", "scale": 1.0, "mode": "fan_avg"}, "class_name": "VarianceScaling"}}, "name": "fc26", "inbound_nodes": [[["flatten_1", 0, 0, {}]]], "class_name": "Dense"}], "name": "ResNet50", "output_layers": [["fc26", 0, 0]], "input_layers": [["input_1", 0, 0]]}, "keras_version": "2.1.3", "backend": "tensorflow", "class_name": "Model"}