{"backend": "tensorflow", "keras_version": "2.1.3", "config": {"input_layers": [["input_1", 0, 0]], "output_layers": [["fc6", 0, 0]], "name": "ResNet50", "layers": [{"name": "input_1", "config": {"name": "input_1", "sparse": false, "batch_input_shape": [null, 64, 64, 3], "dtype": "float32"}, "inbound_nodes": [], "class_name": "InputLayer"}, {"name": "zero_padding2d_1", "config": {"trainable": true, "padding": [[3, 3], [3, 3]], "name": "zero_padding2d_1", "data_format": "channels_last"}, "inbound_nodes": [[["input_1", 0, 0, {}]]], "class_name": "ZeroPadding2D"}, {"name": "conv1", "config": {"kernel_constraint": null, "bias_initializer": {"config": {}, "class_name": "Zeros"}, "data_format": "channels_last", "kernel_size": [7, 7], "strides": [2, 2], "padding": "valid", "activity_regularizer": null, "name": "conv1", "activation": "linear", "bias_regularizer": null, "kernel_initializer": {"config": {"mode": "fan_avg", "distribution": "uniform", "scale": 1.0, "seed": 0}, "class_name": "VarianceScaling"}, "trainable": true, "use_bias": true, "bias_constraint": null, "dilation_rate": [1, 1], "filters": 64, "kernel_regularizer": null}, "inbound_nodes": [[["zero_padding2d_1", 0, 0, {}]]], "class_name": "Conv2D"}, {"name": "bn_conv1", "config": {"moving_mean_initializer": {"config": {}, "class_name": "Zeros"}, "gamma_regularizer": null, "name": "bn_conv1", "beta_initializer": {"config": {}, "class_name": "Zeros"}, "gamma_initializer": {"config": {}, "class_name": "Ones"}, "beta_regularizer": null, "trainable": true, "momentum": 0.99, "center": true, "epsilon": 0.001, "gamma_constraint": null, "axis": 3, "scale": true, "beta_constraint": null, "moving_variance_initializer": {"config": {}, "class_name": "Ones"}}, "inbound_nodes": [[["conv1", 0, 0, {}]]], "class_name": "BatchNormalization"}, {"name": "activation_1", "config": {"trainable": true, "name": "activation_1", "activation": "relu"}, "inbound_nodes": [[["bn_conv1", 0, 0, {}]]], "class_name": "Activation"}, {"name": "max_pooling2d_1", "config": {"trainable": true, "data_format": "channels_last", "pool_size": [3, 3], "strides": [2, 2], "padding": "valid", "name": "max_pooling2d_1"}, "inbound_nodes": [[["activation_1", 0, 0, {}]]], "class_name": "MaxPooling2D"}, {"name": "res2a_branch2a", "config": {"kernel_constraint": null, "bias_initializer": {"config": {}, "class_name": "Zeros"}, "data_format": "channels_last", "kernel_size": [1, 1], "strides": [1, 1], "padding": "valid", "activity_regularizer": null, "name": "res2a_branch2a", "activation": "linear", "bias_regularizer": null, "kernel_initializer": {"config": {"mode": "fan_avg", "distribution": "uniform", "scale": 1.0, "seed": 0}, "class_name": "VarianceScaling"}, "trainable": true, "use_bias": true, "bias_constraint": null, "dilation_rate": [1, 1], "filters": 64, "kernel_regularizer": null}, "inbound_nodes": [[["max_pooling2d_1", 0, 0, {}]]], "class_name": "Conv2D"}, {"name": "bn2a_branch2a", "config": {"moving_mean_initializer": {"config": {}, "class_name": "Zeros"}, "gamma_regularizer": null, "name": "bn2a_branch2a", "beta_initializer": {"config": {}, "class_name": "Zeros"}, "gamma_initializer": {"config": {}, "class_name": "Ones"}, "beta_regularizer": null, "trainable": true, "momentum": 0.99, "center": true, "epsilon": 0.001, "gamma_constraint": null, "axis": 3, "scale": true, "beta_constraint": null, "moving_variance_initializer": {"config": {}, "class_name": "Ones"}}, "inbound_nodes": [[["res2a_branch2a", 0, 0, {}]]], "class_name": "BatchNormalization"}, {"name": "activation_2", "config": {"trainable": true, "name": "activation_2", "activation": "relu"}, "inbound_nodes": [[["bn2a_branch2a", 0, 0, {}]]], "class_name": "Activation"}, {"name": "res2a_branch2b", "config": {"kernel_constraint": null, "bias_initializer": {"config": {}, "class_name": "Zeros"}, "data_format": "channels_last", "kernel_size": [3, 3], "strides": [1, 1], "padding": "same", "activity_regularizer": null, "name": "res2a_branch2b", "activation": "linear", "bias_regularizer": null, "kernel_initializer": {"config": {"mode": "fan_avg", "distribution": "uniform", "scale": 1.0, "seed": 0}, "class_name": "VarianceScaling"}, "trainable": true, "use_bias": true, "bias_constraint": null, "dilation_rate": [1, 1], "filters": 64, "kernel_regularizer": null}, "inbound_nodes": [[["activation_2", 0, 0, {}]]], "class_name": "Conv2D"}, {"name": "bn2a_branch2b", "config": {"moving_mean_initializer": {"config": {}, "class_name": "Zeros"}, "gamma_regularizer": null, "name": "bn2a_branch2b", "beta_initializer": {"config": {}, "class_name": "Zeros"}, "gamma_initializer": {"config": {}, "class_name": "Ones"}, "beta_regularizer": null, "trainable": true, "momentum": 0.99, "center": true, "epsilon": 0.001, "gamma_constraint": null, "axis": 3, "scale": true, "beta_constraint": null, "moving_variance_initializer": {"config": {}, "class_name": "Ones"}}, "inbound_nodes": [[["res2a_branch2b", 0, 0, {}]]], "class_name": "BatchNormalization"}, {"name": "activation_3", "config": {"trainable": true, "name": "activation_3", "activation": "relu"}, "inbound_nodes": [[["bn2a_branch2b", 0, 0, {}]]], "class_name": "Activation"}, {"name": "res2a_branch2c", "config": {"kernel_constraint": null, "bias_initializer": {"config": {}, "class_name": "Zeros"}, "data_format": "channels_last", "kernel_size": [1, 1], "strides": [1, 1], "padding": "valid", "activity_regularizer": null, "name": "res2a_branch2c", "activation": "linear", "bias_regularizer": null, "kernel_initializer": {"config": {"mode": "fan_avg", "distribution": "uniform", "scale": 1.0, "seed": 0}, "class_name": "VarianceScaling"}, "trainable": true, "use_bias": true, "bias_constraint": null, "dilation_rate": [1, 1], "filters": 256, "kernel_regularizer": null}, "inbound_nodes": [[["activation_3", 0, 0, {}]]], "class_name": "Conv2D"}, {"name": "res2a_branch1", "config": {"kernel_constraint": null, "bias_initializer": {"config": {}, "class_name": "Zeros"}, "data_format": "channels_last", "kernel_size": [1, 1], "strides": [1, 1], "padding": "valid", "activity_regularizer": null, "name": "res2a_branch1", "activation": "linear", "bias_regularizer": null, "kernel_initializer": {"config": {"mode": "fan_avg", "distribution": "uniform", "scale": 1.0, "seed": 0}, "class_name": "VarianceScaling"}, "trainable": true, "use_bias": true, "bias_constraint": null, "dilation_rate": [1, 1], "filters": 256, "kernel_regularizer": null}, "inbound_nodes": [[["max_pooling2d_1", 0, 0, {}]]], "class_name": "Conv2D"}, {"name": "bn2a_branch2c", "config": {"moving_mean_initializer": {"config": {}, "class_name": "Zeros"}, "gamma_regularizer": null, "name": "bn2a_branch2c", "beta_initializer": {"config": {}, "class_name": "Zeros"}, "gamma_initializer": {"config": {}, "class_name": "Ones"}, "beta_regularizer": null, "trainable": true, "momentum": 0.99, "center": true, "epsilon": 0.001, "gamma_constraint": null, "axis": 3, "scale": true, "beta_constraint": null, "moving_variance_initializer": {"config": {}, "class_name": "Ones"}}, "inbound_nodes": [[["res2a_branch2c", 0, 0, {}]]], "class_name": "BatchNormalization"}, {"name": "bn2a_branch1", "config": {"moving_mean_initializer": {"config": {}, "class_name": "Zeros"}, "gamma_regularizer": null, "name": "bn2a_branch1", "beta_initializer": {"config": {}, "class_name": "Zeros"}, "gamma_initializer": {"config": {}, "class_name": "Ones"}, "beta_regularizer": null, "trainable": true, "momentum": 0.99, "center": true, "epsilon": 0.001, "gamma_constraint": null, "axis": 3, "scale": true, "beta_constraint": null, "moving_variance_initializer": {"config": {}, "class_name": "Ones"}}, "inbound_nodes": [[["res2a_branch1", 0, 0, {}]]], "class_name": "BatchNormalization"}, {"name": "add_1", "config": {"trainable": true, "name": "add_1"}, "inbound_nodes": [[["bn2a_branch2c", 0, 0, {}], ["bn2a_branch1", 0, 0, {}]]], "class_name": "Add"}, {"name": "activation_4", "config": {"trainable": true, "name": "activation_4", "activation": "relu"}, "inbound_nodes": [[["add_1", 0, 0, {}]]], "class_name": "Activation"}, {"name": "res2b_branch2a", "config": {"kernel_constraint": null, "bias_initializer": {"config": {}, "class_name": "Zeros"}, "data_format": "channels_last", "kernel_size": [1, 1], "strides": [1, 1], "padding": "valid", "activity_regularizer": null, "name": "res2b_branch2a", "activation": "linear", "bias_regularizer": null, "kernel_initializer": {"config": {"mode": "fan_avg", "distribution": "uniform", "scale": 1.0, "seed": 0}, "class_name": "VarianceScaling"}, "trainable": true, "use_bias": true, "bias_constraint": null, "dilation_rate": [1, 1], "filters": 64, "kernel_regularizer": null}, "inbound_nodes": [[["activation_4", 0, 0, {}]]], "class_name": "Conv2D"}, {"name": "bn2b_branch2a", "config": {"moving_mean_initializer": {"config": {}, "class_name": "Zeros"}, "gamma_regularizer": null, "name": "bn2b_branch2a", "beta_initializer": {"config": {}, "class_name": "Zeros"}, "gamma_initializer": {"config": {}, "class_name": "Ones"}, "beta_regularizer": null, "trainable": true, "momentum": 0.99, "center": true, "epsilon": 0.001, "gamma_constraint": null, "axis": 3, "scale": true, "beta_constraint": null, "moving_variance_initializer": {"config": {}, "class_name": "Ones"}}, "inbound_nodes": [[["res2b_branch2a", 0, 0, {}]]], "class_name": "BatchNormalization"}, {"name": "activation_5", "config": {"trainable": true, "name": "activation_5", "activation": "relu"}, "inbound_nodes": [[["bn2b_branch2a", 0, 0, {}]]], "class_name": "Activation"}, {"name": "res2b_branch2b", "config": {"kernel_constraint": null, "bias_initializer": {"config": {}, "class_name": "Zeros"}, "data_format": "channels_last", "kernel_size": [3, 3], "strides": [1, 1], "padding": "same", "activity_regularizer": null, "name": "res2b_branch2b", "activation": "linear", "bias_regularizer": null, "kernel_initializer": {"config": {"mode": "fan_avg", "distribution": "uniform", "scale": 1.0, "seed": 0}, "class_name": "VarianceScaling"}, "trainable": true, "use_bias": true, "bias_constraint": null, "dilation_rate": [1, 1], "filters": 64, "kernel_regularizer": null}, "inbound_nodes": [[["activation_5", 0, 0, {}]]], "class_name": "Conv2D"}, {"name": "bn2b_branch2b", "config": {"moving_mean_initializer": {"config": {}, "class_name": "Zeros"}, "gamma_regularizer": null, "name": "bn2b_branch2b", "beta_initializer": {"config": {}, "class_name": "Zeros"}, "gamma_initializer": {"config": {}, "class_name": "Ones"}, "beta_regularizer": null, "trainable": true, "momentum": 0.99, "center": true, "epsilon": 0.001, "gamma_constraint": null, "axis": 3, "scale": true, "beta_constraint": null, "moving_variance_initializer": {"config": {}, "class_name": "Ones"}}, "inbound_nodes": [[["res2b_branch2b", 0, 0, {}]]], "class_name": "BatchNormalization"}, {"name": "activation_6", "config": {"trainable": true, "name": "activation_6", "activation": "relu"}, "inbound_nodes": [[["bn2b_branch2b", 0, 0, {}]]], "class_name": "Activation"}, {"name": "res2b_branch2c", "config": {"kernel_constraint": null, "bias_initializer": {"config": {}, "class_name": "Zeros"}, "data_format": "channels_last", "kernel_size": [1, 1], "strides": [1, 1], "padding": "valid", "activity_regularizer": null, "name": "res2b_branch2c", "activation": "linear", "bias_regularizer": null, "kernel_initializer": {"config": {"mode": "fan_avg", "distribution": "uniform", "scale": 1.0, "seed": 0}, "class_name": "VarianceScaling"}, "trainable": true, "use_bias": true, "bias_constraint": null, "dilation_rate": [1, 1], "filters": 256, "kernel_regularizer": null}, "inbound_nodes": [[["activation_6", 0, 0, {}]]], "class_name": "Conv2D"}, {"name": "bn2b_branch2c", "config": {"moving_mean_initializer": {"config": {}, "class_name": "Zeros"}, "gamma_regularizer": null, "name": "bn2b_branch2c", "beta_initializer": {"config": {}, "class_name": "Zeros"}, "gamma_initializer": {"config": {}, "class_name": "Ones"}, "beta_regularizer": null, "trainable": true, "momentum": 0.99, "center": true, "epsilon": 0.001, "gamma_constraint": null, "axis": 3, "scale": true, "beta_constraint": null, "moving_variance_initializer": {"config": {}, "class_name": "Ones"}}, "inbound_nodes": [[["res2b_branch2c", 0, 0, {}]]], "class_name": "BatchNormalization"}, {"name": "add_2", "config": {"trainable": true, "name": "add_2"}, "inbound_nodes": [[["bn2b_branch2c", 0, 0, {}], ["activation_4", 0, 0, {}]]], "class_name": "Add"}, {"name": "activation_7", "config": {"trainable": true, "name": "activation_7", "activation": "relu"}, "inbound_nodes": [[["add_2", 0, 0, {}]]], "class_name": "Activation"}, {"name": "res2c_branch2a", "config": {"kernel_constraint": null, "bias_initializer": {"config": {}, "class_name": "Zeros"}, "data_format": "channels_last", "kernel_size": [1, 1], "strides": [1, 1], "padding": "valid", "activity_regularizer": null, "name": "res2c_branch2a", "activation": "linear", "bias_regularizer": null, "kernel_initializer": {"config": {"mode": "fan_avg", "distribution": "uniform", "scale": 1.0, "seed": 0}, "class_name": "VarianceScaling"}, "trainable": true, "use_bias": true, "bias_constraint": null, "dilation_rate": [1, 1], "filters": 64, "kernel_regularizer": null}, "inbound_nodes": [[["activation_7", 0, 0, {}]]], "class_name": "Conv2D"}, {"name": "bn2c_branch2a", "config": {"moving_mean_initializer": {"config": {}, "class_name": "Zeros"}, "gamma_regularizer": null, "name": "bn2c_branch2a", "beta_initializer": {"config": {}, "class_name": "Zeros"}, "gamma_initializer": {"config": {}, "class_name": "Ones"}, "beta_regularizer": null, "trainable": true, "momentum": 0.99, "center": true, "epsilon": 0.001, "gamma_constraint": null, "axis": 3, "scale": true, "beta_constraint": null, "moving_variance_initializer": {"config": {}, "class_name": "Ones"}}, "inbound_nodes": [[["res2c_branch2a", 0, 0, {}]]], "class_name": "BatchNormalization"}, {"name": "activation_8", "config": {"trainable": true, "name": "activation_8", "activation": "relu"}, "inbound_nodes": [[["bn2c_branch2a", 0, 0, {}]]], "class_name": "Activation"}, {"name": "res2c_branch2b", "config": {"kernel_constraint": null, "bias_initializer": {"config": {}, "class_name": "Zeros"}, "data_format": "channels_last", "kernel_size": [3, 3], "strides": [1, 1], "padding": "same", "activity_regularizer": null, "name": "res2c_branch2b", "activation": "linear", "bias_regularizer": null, "kernel_initializer": {"config": {"mode": "fan_avg", "distribution": "uniform", "scale": 1.0, "seed": 0}, "class_name": "VarianceScaling"}, "trainable": true, "use_bias": true, "bias_constraint": null, "dilation_rate": [1, 1], "filters": 64, "kernel_regularizer": null}, "inbound_nodes": [[["activation_8", 0, 0, {}]]], "class_name": "Conv2D"}, {"name": "bn2c_branch2b", "config": {"moving_mean_initializer": {"config": {}, "class_name": "Zeros"}, "gamma_regularizer": null, "name": "bn2c_branch2b", "beta_initializer": {"config": {}, "class_name": "Zeros"}, "gamma_initializer": {"config": {}, "class_name": "Ones"}, "beta_regularizer": null, "trainable": true, "momentum": 0.99, "center": true, "epsilon": 0.001, "gamma_constraint": null, "axis": 3, "scale": true, "beta_constraint": null, "moving_variance_initializer": {"config": {}, "class_name": "Ones"}}, "inbound_nodes": [[["res2c_branch2b", 0, 0, {}]]], "class_name": "BatchNormalization"}, {"name": "activation_9", "config": {"trainable": true, "name": "activation_9", "activation": "relu"}, "inbound_nodes": [[["bn2c_branch2b", 0, 0, {}]]], "class_name": "Activation"}, {"name": "res2c_branch2c", "config": {"kernel_constraint": null, "bias_initializer": {"config": {}, "class_name": "Zeros"}, "data_format": "channels_last", "kernel_size": [1, 1], "strides": [1, 1], "padding": "valid", "activity_regularizer": null, "name": "res2c_branch2c", "activation": "linear", "bias_regularizer": null, "kernel_initializer": {"config": {"mode": "fan_avg", "distribution": "uniform", "scale": 1.0, "seed": 0}, "class_name": "VarianceScaling"}, "trainable": true, "use_bias": true, "bias_constraint": null, "dilation_rate": [1, 1], "filters": 256, "kernel_regularizer": null}, "inbound_nodes": [[["activation_9", 0, 0, {}]]], "class_name": "Conv2D"}, {"name": "bn2c_branch2c", "config": {"moving_mean_initializer": {"config": {}, "class_name": "Zeros"}, "gamma_regularizer": null, "name": "bn2c_branch2c", "beta_initializer": {"config": {}, "class_name": "Zeros"}, "gamma_initializer": {"config": {}, "class_name": "Ones"}, "beta_regularizer": null, "trainable": true, "momentum": 0.99, "center": true, "epsilon": 0.001, "gamma_constraint": null, "axis": 3, "scale": true, "beta_constraint": null, "moving_variance_initializer": {"config": {}, "class_name": "Ones"}}, "inbound_nodes": [[["res2c_branch2c", 0, 0, {}]]], "class_name": "BatchNormalization"}, {"name": "add_3", "config": {"trainable": true, "name": "add_3"}, "inbound_nodes": [[["bn2c_branch2c", 0, 0, {}], ["activation_7", 0, 0, {}]]], "class_name": "Add"}, {"name": "activation_10", "config": {"trainable": true, "name": "activation_10", "activation": "relu"}, "inbound_nodes": [[["add_3", 0, 0, {}]]], "class_name": "Activation"}, {"name": "res3a_branch2a", "config": {"kernel_constraint": null, "bias_initializer": {"config": {}, "class_name": "Zeros"}, "data_format": "channels_last", "kernel_size": [1, 1], "strides": [2, 2], "padding": "valid", "activity_regularizer": null, "name": "res3a_branch2a", "activation": "linear", "bias_regularizer": null, "kernel_initializer": {"config": {"mode": "fan_avg", "distribution": "uniform", "scale": 1.0, "seed": 0}, "class_name": "VarianceScaling"}, "trainable": true, "use_bias": true, "bias_constraint": null, "dilation_rate": [1, 1], "filters": 128, "kernel_regularizer": null}, "inbound_nodes": [[["activation_10", 0, 0, {}]]], "class_name": "Conv2D"}, {"name": "bn3a_branch2a", "config": {"moving_mean_initializer": {"config": {}, "class_name": "Zeros"}, "gamma_regularizer": null, "name": "bn3a_branch2a", "beta_initializer": {"config": {}, "class_name": "Zeros"}, "gamma_initializer": {"config": {}, "class_name": "Ones"}, "beta_regularizer": null, "trainable": true, "momentum": 0.99, "center": true, "epsilon": 0.001, "gamma_constraint": null, "axis": 3, "scale": true, "beta_constraint": null, "moving_variance_initializer": {"config": {}, "class_name": "Ones"}}, "inbound_nodes": [[["res3a_branch2a", 0, 0, {}]]], "class_name": "BatchNormalization"}, {"name": "activation_11", "config": {"trainable": true, "name": "activation_11", "activation": "relu"}, "inbound_nodes": [[["bn3a_branch2a", 0, 0, {}]]], "class_name": "Activation"}, {"name": "res3a_branch2b", "config": {"kernel_constraint": null, "bias_initializer": {"config": {}, "class_name": "Zeros"}, "data_format": "channels_last", "kernel_size": [3, 3], "strides": [1, 1], "padding": "same", "activity_regularizer": null, "name": "res3a_branch2b", "activation": "linear", "bias_regularizer": null, "kernel_initializer": {"config": {"mode": "fan_avg", "distribution": "uniform", "scale": 1.0, "seed": 0}, "class_name": "VarianceScaling"}, "trainable": true, "use_bias": true, "bias_constraint": null, "dilation_rate": [1, 1], "filters": 128, "kernel_regularizer": null}, "inbound_nodes": [[["activation_11", 0, 0, {}]]], "class_name": "Conv2D"}, {"name": "bn3a_branch2b", "config": {"moving_mean_initializer": {"config": {}, "class_name": "Zeros"}, "gamma_regularizer": null, "name": "bn3a_branch2b", "beta_initializer": {"config": {}, "class_name": "Zeros"}, "gamma_initializer": {"config": {}, "class_name": "Ones"}, "beta_regularizer": null, "trainable": true, "momentum": 0.99, "center": true, "epsilon": 0.001, "gamma_constraint": null, "axis": 3, "scale": true, "beta_constraint": null, "moving_variance_initializer": {"config": {}, "class_name": "Ones"}}, "inbound_nodes": [[["res3a_branch2b", 0, 0, {}]]], "class_name": "BatchNormalization"}, {"name": "activation_12", "config": {"trainable": true, "name": "activation_12", "activation": "relu"}, "inbound_nodes": [[["bn3a_branch2b", 0, 0, {}]]], "class_name": "Activation"}, {"name": "res3a_branch2c", "config": {"kernel_constraint": null, "bias_initializer": {"config": {}, "class_name": "Zeros"}, "data_format": "channels_last", "kernel_size": [1, 1], "strides": [1, 1], "padding": "valid", "activity_regularizer": null, "name": "res3a_branch2c", "activation": "linear", "bias_regularizer": null, "kernel_initializer": {"config": {"mode": "fan_avg", "distribution": "uniform", "scale": 1.0, "seed": 0}, "class_name": "VarianceScaling"}, "trainable": true, "use_bias": true, "bias_constraint": null, "dilation_rate": [1, 1], "filters": 512, "kernel_regularizer": null}, "inbound_nodes": [[["activation_12", 0, 0, {}]]], "class_name": "Conv2D"}, {"name": "res3a_branch1", "config": {"kernel_constraint": null, "bias_initializer": {"config": {}, "class_name": "Zeros"}, "data_format": "channels_last", "kernel_size": [1, 1], "strides": [2, 2], "padding": "valid", "activity_regularizer": null, "name": "res3a_branch1", "activation": "linear", "bias_regularizer": null, "kernel_initializer": {"config": {"mode": "fan_avg", "distribution": "uniform", "scale": 1.0, "seed": 0}, "class_name": "VarianceScaling"}, "trainable": true, "use_bias": true, "bias_constraint": null, "dilation_rate": [1, 1], "filters": 512, "kernel_regularizer": null}, "inbound_nodes": [[["activation_10", 0, 0, {}]]], "class_name": "Conv2D"}, {"name": "bn3a_branch2c", "config": {"moving_mean_initializer": {"config": {}, "class_name": "Zeros"}, "gamma_regularizer": null, "name": "bn3a_branch2c", "beta_initializer": {"config": {}, "class_name": "Zeros"}, "gamma_initializer": {"config": {}, "class_name": "Ones"}, "beta_regularizer": null, "trainable": true, "momentum": 0.99, "center": true, "epsilon": 0.001, "gamma_constraint": null, "axis": 3, "scale": true, "beta_constraint": null, "moving_variance_initializer": {"config": {}, "class_name": "Ones"}}, "inbound_nodes": [[["res3a_branch2c", 0, 0, {}]]], "class_name": "BatchNormalization"}, {"name": "bn3a_branch1", "config": {"moving_mean_initializer": {"config": {}, "class_name": "Zeros"}, "gamma_regularizer": null, "name": "bn3a_branch1", "beta_initializer": {"config": {}, "class_name": "Zeros"}, "gamma_initializer": {"config": {}, "class_name": "Ones"}, "beta_regularizer": null, "trainable": true, "momentum": 0.99, "center": true, "epsilon": 0.001, "gamma_constraint": null, "axis": 3, "scale": true, "beta_constraint": null, "moving_variance_initializer": {"config": {}, "class_name": "Ones"}}, "inbound_nodes": [[["res3a_branch1", 0, 0, {}]]], "class_name": "BatchNormalization"}, {"name": "add_4", "config": {"trainable": true, "name": "add_4"}, "inbound_nodes": [[["bn3a_branch2c", 0, 0, {}], ["bn3a_branch1", 0, 0, {}]]], "class_name": "Add"}, {"name": "activation_13", "config": {"trainable": true, "name": "activation_13", "activation": "relu"}, "inbound_nodes": [[["add_4", 0, 0, {}]]], "class_name": "Activation"}, {"name": "res3b_branch2a", "config": {"kernel_constraint": null, "bias_initializer": {"config": {}, "class_name": "Zeros"}, "data_format": "channels_last", "kernel_size": [1, 1], "strides": [1, 1], "padding": "valid", "activity_regularizer": null, "name": "res3b_branch2a", "activation": "linear", "bias_regularizer": null, "kernel_initializer": {"config": {"mode": "fan_avg", "distribution": "uniform", "scale": 1.0, "seed": 0}, "class_name": "VarianceScaling"}, "trainable": true, "use_bias": true, "bias_constraint": null, "dilation_rate": [1, 1], "filters": 128, "kernel_regularizer": null}, "inbound_nodes": [[["activation_13", 0, 0, {}]]], "class_name": "Conv2D"}, {"name": "bn3b_branch2a", "config": {"moving_mean_initializer": {"config": {}, "class_name": "Zeros"}, "gamma_regularizer": null, "name": "bn3b_branch2a", "beta_initializer": {"config": {}, "class_name": "Zeros"}, "gamma_initializer": {"config": {}, "class_name": "Ones"}, "beta_regularizer": null, "trainable": true, "momentum": 0.99, "center": true, "epsilon": 0.001, "gamma_constraint": null, "axis": 3, "scale": true, "beta_constraint": null, "moving_variance_initializer": {"config": {}, "class_name": "Ones"}}, "inbound_nodes": [[["res3b_branch2a", 0, 0, {}]]], "class_name": "BatchNormalization"}, {"name": "activation_14", "config": {"trainable": true, "name": "activation_14", "activation": "relu"}, "inbound_nodes": [[["bn3b_branch2a", 0, 0, {}]]], "class_name": "Activation"}, {"name": "res3b_branch2b", "config": {"kernel_constraint": null, "bias_initializer": {"config": {}, "class_name": "Zeros"}, "data_format": "channels_last", "kernel_size": [3, 3], "strides": [1, 1], "padding": "same", "activity_regularizer": null, "name": "res3b_branch2b", "activation": "linear", "bias_regularizer": null, "kernel_initializer": {"config": {"mode": "fan_avg", "distribution": "uniform", "scale": 1.0, "seed": 0}, "class_name": "VarianceScaling"}, "trainable": true, "use_bias": true, "bias_constraint": null, "dilation_rate": [1, 1], "filters": 128, "kernel_regularizer": null}, "inbound_nodes": [[["activation_14", 0, 0, {}]]], "class_name": "Conv2D"}, {"name": "bn3b_branch2b", "config": {"moving_mean_initializer": {"config": {}, "class_name": "Zeros"}, "gamma_regularizer": null, "name": "bn3b_branch2b", "beta_initializer": {"config": {}, "class_name": "Zeros"}, "gamma_initializer": {"config": {}, "class_name": "Ones"}, "beta_regularizer": null, "trainable": true, "momentum": 0.99, "center": true, "epsilon": 0.001, "gamma_constraint": null, "axis": 3, "scale": true, "beta_constraint": null, "moving_variance_initializer": {"config": {}, "class_name": "Ones"}}, "inbound_nodes": [[["res3b_branch2b", 0, 0, {}]]], "class_name": "BatchNormalization"}, {"name": "activation_15", "config": {"trainable": true, "name": "activation_15", "activation": "relu"}, "inbound_nodes": [[["bn3b_branch2b", 0, 0, {}]]], "class_name": "Activation"}, {"name": "res3b_branch2c", "config": {"kernel_constraint": null, "bias_initializer": {"config": {}, "class_name": "Zeros"}, "data_format": "channels_last", "kernel_size": [1, 1], "strides": [1, 1], "padding": "valid", "activity_regularizer": null, "name": "res3b_branch2c", "activation": "linear", "bias_regularizer": null, "kernel_initializer": {"config": {"mode": "fan_avg", "distribution": "uniform", "scale": 1.0, "seed": 0}, "class_name": "VarianceScaling"}, "trainable": true, "use_bias": true, "bias_constraint": null, "dilation_rate": [1, 1], "filters": 512, "kernel_regularizer": null}, "inbound_nodes": [[["activation_15", 0, 0, {}]]], "class_name": "Conv2D"}, {"name": "bn3b_branch2c", "config": {"moving_mean_initializer": {"config": {}, "class_name": "Zeros"}, "gamma_regularizer": null, "name": "bn3b_branch2c", "beta_initializer": {"config": {}, "class_name": "Zeros"}, "gamma_initializer": {"config": {}, "class_name": "Ones"}, "beta_regularizer": null, "trainable": true, "momentum": 0.99, "center": true, "epsilon": 0.001, "gamma_constraint": null, "axis": 3, "scale": true, "beta_constraint": null, "moving_variance_initializer": {"config": {}, "class_name": "Ones"}}, "inbound_nodes": [[["res3b_branch2c", 0, 0, {}]]], "class_name": "BatchNormalization"}, {"name": "add_5", "config": {"trainable": true, "name": "add_5"}, "inbound_nodes": [[["bn3b_branch2c", 0, 0, {}], ["activation_13", 0, 0, {}]]], "class_name": "Add"}, {"name": "activation_16", "config": {"trainable": true, "name": "activation_16", "activation": "relu"}, "inbound_nodes": [[["add_5", 0, 0, {}]]], "class_name": "Activation"}, {"name": "res3c_branch2a", "config": {"kernel_constraint": null, "bias_initializer": {"config": {}, "class_name": "Zeros"}, "data_format": "channels_last", "kernel_size": [1, 1], "strides": [1, 1], "padding": "valid", "activity_regularizer": null, "name": "res3c_branch2a", "activation": "linear", "bias_regularizer": null, "kernel_initializer": {"config": {"mode": "fan_avg", "distribution": "uniform", "scale": 1.0, "seed": 0}, "class_name": "VarianceScaling"}, "trainable": true, "use_bias": true, "bias_constraint": null, "dilation_rate": [1, 1], "filters": 128, "kernel_regularizer": null}, "inbound_nodes": [[["activation_16", 0, 0, {}]]], "class_name": "Conv2D"}, {"name": "bn3c_branch2a", "config": {"moving_mean_initializer": {"config": {}, "class_name": "Zeros"}, "gamma_regularizer": null, "name": "bn3c_branch2a", "beta_initializer": {"config": {}, "class_name": "Zeros"}, "gamma_initializer": {"config": {}, "class_name": "Ones"}, "beta_regularizer": null, "trainable": true, "momentum": 0.99, "center": true, "epsilon": 0.001, "gamma_constraint": null, "axis": 3, "scale": true, "beta_constraint": null, "moving_variance_initializer": {"config": {}, "class_name": "Ones"}}, "inbound_nodes": [[["res3c_branch2a", 0, 0, {}]]], "class_name": "BatchNormalization"}, {"name": "activation_17", "config": {"trainable": true, "name": "activation_17", "activation": "relu"}, "inbound_nodes": [[["bn3c_branch2a", 0, 0, {}]]], "class_name": "Activation"}, {"name": "res3c_branch2b", "config": {"kernel_constraint": null, "bias_initializer": {"config": {}, "class_name": "Zeros"}, "data_format": "channels_last", "kernel_size": [3, 3], "strides": [1, 1], "padding": "same", "activity_regularizer": null, "name": "res3c_branch2b", "activation": "linear", "bias_regularizer": null, "kernel_initializer": {"config": {"mode": "fan_avg", "distribution": "uniform", "scale": 1.0, "seed": 0}, "class_name": "VarianceScaling"}, "trainable": true, "use_bias": true, "bias_constraint": null, "dilation_rate": [1, 1], "filters": 128, "kernel_regularizer": null}, "inbound_nodes": [[["activation_17", 0, 0, {}]]], "class_name": "Conv2D"}, {"name": "bn3c_branch2b", "config": {"moving_mean_initializer": {"config": {}, "class_name": "Zeros"}, "gamma_regularizer": null, "name": "bn3c_branch2b", "beta_initializer": {"config": {}, "class_name": "Zeros"}, "gamma_initializer": {"config": {}, "class_name": "Ones"}, "beta_regularizer": null, "trainable": true, "momentum": 0.99, "center": true, "epsilon": 0.001, "gamma_constraint": null, "axis": 3, "scale": true, "beta_constraint": null, "moving_variance_initializer": {"config": {}, "class_name": "Ones"}}, "inbound_nodes": [[["res3c_branch2b", 0, 0, {}]]], "class_name": "BatchNormalization"}, {"name": "activation_18", "config": {"trainable": true, "name": "activation_18", "activation": "relu"}, "inbound_nodes": [[["bn3c_branch2b", 0, 0, {}]]], "class_name": "Activation"}, {"name": "res3c_branch2c", "config": {"kernel_constraint": null, "bias_initializer": {"config": {}, "class_name": "Zeros"}, "data_format": "channels_last", "kernel_size": [1, 1], "strides": [1, 1], "padding": "valid", "activity_regularizer": null, "name": "res3c_branch2c", "activation": "linear", "bias_regularizer": null, "kernel_initializer": {"config": {"mode": "fan_avg", "distribution": "uniform", "scale": 1.0, "seed": 0}, "class_name": "VarianceScaling"}, "trainable": true, "use_bias": true, "bias_constraint": null, "dilation_rate": [1, 1], "filters": 512, "kernel_regularizer": null}, "inbound_nodes": [[["activation_18", 0, 0, {}]]], "class_name": "Conv2D"}, {"name": "bn3c_branch2c", "config": {"moving_mean_initializer": {"config": {}, "class_name": "Zeros"}, "gamma_regularizer": null, "name": "bn3c_branch2c", "beta_initializer": {"config": {}, "class_name": "Zeros"}, "gamma_initializer": {"config": {}, "class_name": "Ones"}, "beta_regularizer": null, "trainable": true, "momentum": 0.99, "center": true, "epsilon": 0.001, "gamma_constraint": null, "axis": 3, "scale": true, "beta_constraint": null, "moving_variance_initializer": {"config": {}, "class_name": "Ones"}}, "inbound_nodes": [[["res3c_branch2c", 0, 0, {}]]], "class_name": "BatchNormalization"}, {"name": "add_6", "config": {"trainable": true, "name": "add_6"}, "inbound_nodes": [[["bn3c_branch2c", 0, 0, {}], ["activation_16", 0, 0, {}]]], "class_name": "Add"}, {"name": "activation_19", "config": {"trainable": true, "name": "activation_19", "activation": "relu"}, "inbound_nodes": [[["add_6", 0, 0, {}]]], "class_name": "Activation"}, {"name": "res3d_branch2a", "config": {"kernel_constraint": null, "bias_initializer": {"config": {}, "class_name": "Zeros"}, "data_format": "channels_last", "kernel_size": [1, 1], "strides": [1, 1], "padding": "valid", "activity_regularizer": null, "name": "res3d_branch2a", "activation": "linear", "bias_regularizer": null, "kernel_initializer": {"config": {"mode": "fan_avg", "distribution": "uniform", "scale": 1.0, "seed": 0}, "class_name": "VarianceScaling"}, "trainable": true, "use_bias": true, "bias_constraint": null, "dilation_rate": [1, 1], "filters": 128, "kernel_regularizer": null}, "inbound_nodes": [[["activation_19", 0, 0, {}]]], "class_name": "Conv2D"}, {"name": "bn3d_branch2a", "config": {"moving_mean_initializer": {"config": {}, "class_name": "Zeros"}, "gamma_regularizer": null, "name": "bn3d_branch2a", "beta_initializer": {"config": {}, "class_name": "Zeros"}, "gamma_initializer": {"config": {}, "class_name": "Ones"}, "beta_regularizer": null, "trainable": true, "momentum": 0.99, "center": true, "epsilon": 0.001, "gamma_constraint": null, "axis": 3, "scale": true, "beta_constraint": null, "moving_variance_initializer": {"config": {}, "class_name": "Ones"}}, "inbound_nodes": [[["res3d_branch2a", 0, 0, {}]]], "class_name": "BatchNormalization"}, {"name": "activation_20", "config": {"trainable": true, "name": "activation_20", "activation": "relu"}, "inbound_nodes": [[["bn3d_branch2a", 0, 0, {}]]], "class_name": "Activation"}, {"name": "res3d_branch2b", "config": {"kernel_constraint": null, "bias_initializer": {"config": {}, "class_name": "Zeros"}, "data_format": "channels_last", "kernel_size": [3, 3], "strides": [1, 1], "padding": "same", "activity_regularizer": null, "name": "res3d_branch2b", "activation": "linear", "bias_regularizer": null, "kernel_initializer": {"config": {"mode": "fan_avg", "distribution": "uniform", "scale": 1.0, "seed": 0}, "class_name": "VarianceScaling"}, "trainable": true, "use_bias": true, "bias_constraint": null, "dilation_rate": [1, 1], "filters": 128, "kernel_regularizer": null}, "inbound_nodes": [[["activation_20", 0, 0, {}]]], "class_name": "Conv2D"}, {"name": "bn3d_branch2b", "config": {"moving_mean_initializer": {"config": {}, "class_name": "Zeros"}, "gamma_regularizer": null, "name": "bn3d_branch2b", "beta_initializer": {"config": {}, "class_name": "Zeros"}, "gamma_initializer": {"config": {}, "class_name": "Ones"}, "beta_regularizer": null, "trainable": true, "momentum": 0.99, "center": true, "epsilon": 0.001, "gamma_constraint": null, "axis": 3, "scale": true, "beta_constraint": null, "moving_variance_initializer": {"config": {}, "class_name": "Ones"}}, "inbound_nodes": [[["res3d_branch2b", 0, 0, {}]]], "class_name": "BatchNormalization"}, {"name": "activation_21", "config": {"trainable": true, "name": "activation_21", "activation": "relu"}, "inbound_nodes": [[["bn3d_branch2b", 0, 0, {}]]], "class_name": "Activation"}, {"name": "res3d_branch2c", "config": {"kernel_constraint": null, "bias_initializer": {"config": {}, "class_name": "Zeros"}, "data_format": "channels_last", "kernel_size": [1, 1], "strides": [1, 1], "padding": "valid", "activity_regularizer": null, "name": "res3d_branch2c", "activation": "linear", "bias_regularizer": null, "kernel_initializer": {"config": {"mode": "fan_avg", "distribution": "uniform", "scale": 1.0, "seed": 0}, "class_name": "VarianceScaling"}, "trainable": true, "use_bias": true, "bias_constraint": null, "dilation_rate": [1, 1], "filters": 512, "kernel_regularizer": null}, "inbound_nodes": [[["activation_21", 0, 0, {}]]], "class_name": "Conv2D"}, {"name": "bn3d_branch2c", "config": {"moving_mean_initializer": {"config": {}, "class_name": "Zeros"}, "gamma_regularizer": null, "name": "bn3d_branch2c", "beta_initializer": {"config": {}, "class_name": "Zeros"}, "gamma_initializer": {"config": {}, "class_name": "Ones"}, "beta_regularizer": null, "trainable": true, "momentum": 0.99, "center": true, "epsilon": 0.001, "gamma_constraint": null, "axis": 3, "scale": true, "beta_constraint": null, "moving_variance_initializer": {"config": {}, "class_name": "Ones"}}, "inbound_nodes": [[["res3d_branch2c", 0, 0, {}]]], "class_name": "BatchNormalization"}, {"name": "add_7", "config": {"trainable": true, "name": "add_7"}, "inbound_nodes": [[["bn3d_branch2c", 0, 0, {}], ["activation_19", 0, 0, {}]]], "class_name": "Add"}, {"name": "activation_22", "config": {"trainable": true, "name": "activation_22", "activation": "relu"}, "inbound_nodes": [[["add_7", 0, 0, {}]]], "class_name": "Activation"}, {"name": "res4a_branch2a", "config": {"kernel_constraint": null, "bias_initializer": {"config": {}, "class_name": "Zeros"}, "data_format": "channels_last", "kernel_size": [1, 1], "strides": [2, 2], "padding": "valid", "activity_regularizer": null, "name": "res4a_branch2a", "activation": "linear", "bias_regularizer": null, "kernel_initializer": {"config": {"mode": "fan_avg", "distribution": "uniform", "scale": 1.0, "seed": 0}, "class_name": "VarianceScaling"}, "trainable": true, "use_bias": true, "bias_constraint": null, "dilation_rate": [1, 1], "filters": 256, "kernel_regularizer": null}, "inbound_nodes": [[["activation_22", 0, 0, {}]]], "class_name": "Conv2D"}, {"name": "bn4a_branch2a", "config": {"moving_mean_initializer": {"config": {}, "class_name": "Zeros"}, "gamma_regularizer": null, "name": "bn4a_branch2a", "beta_initializer": {"config": {}, "class_name": "Zeros"}, "gamma_initializer": {"config": {}, "class_name": "Ones"}, "beta_regularizer": null, "trainable": true, "momentum": 0.99, "center": true, "epsilon": 0.001, "gamma_constraint": null, "axis": 3, "scale": true, "beta_constraint": null, "moving_variance_initializer": {"config": {}, "class_name": "Ones"}}, "inbound_nodes": [[["res4a_branch2a", 0, 0, {}]]], "class_name": "BatchNormalization"}, {"name": "activation_23", "config": {"trainable": true, "name": "activation_23", "activation": "relu"}, "inbound_nodes": [[["bn4a_branch2a", 0, 0, {}]]], "class_name": "Activation"}, {"name": "res4a_branch2b", "config": {"kernel_constraint": null, "bias_initializer": {"config": {}, "class_name": "Zeros"}, "data_format": "channels_last", "kernel_size": [3, 3], "strides": [1, 1], "padding": "same", "activity_regularizer": null, "name": "res4a_branch2b", "activation": "linear", "bias_regularizer": null, "kernel_initializer": {"config": {"mode": "fan_avg", "distribution": "uniform", "scale": 1.0, "seed": 0}, "class_name": "VarianceScaling"}, "trainable": true, "use_bias": true, "bias_constraint": null, "dilation_rate": [1, 1], "filters": 256, "kernel_regularizer": null}, "inbound_nodes": [[["activation_23", 0, 0, {}]]], "class_name": "Conv2D"}, {"name": "bn4a_branch2b", "config": {"moving_mean_initializer": {"config": {}, "class_name": "Zeros"}, "gamma_regularizer": null, "name": "bn4a_branch2b", "beta_initializer": {"config": {}, "class_name": "Zeros"}, "gamma_initializer": {"config": {}, "class_name": "Ones"}, "beta_regularizer": null, "trainable": true, "momentum": 0.99, "center": true, "epsilon": 0.001, "gamma_constraint": null, "axis": 3, "scale": true, "beta_constraint": null, "moving_variance_initializer": {"config": {}, "class_name": "Ones"}}, "inbound_nodes": [[["res4a_branch2b", 0, 0, {}]]], "class_name": "BatchNormalization"}, {"name": "activation_24", "config": {"trainable": true, "name": "activation_24", "activation": "relu"}, "inbound_nodes": [[["bn4a_branch2b", 0, 0, {}]]], "class_name": "Activation"}, {"name": "res4a_branch2c", "config": {"kernel_constraint": null, "bias_initializer": {"config": {}, "class_name": "Zeros"}, "data_format": "channels_last", "kernel_size": [1, 1], "strides": [1, 1], "padding": "valid", "activity_regularizer": null, "name": "res4a_branch2c", "activation": "linear", "bias_regularizer": null, "kernel_initializer": {"config": {"mode": "fan_avg", "distribution": "uniform", "scale": 1.0, "seed": 0}, "class_name": "VarianceScaling"}, "trainable": true, "use_bias": true, "bias_constraint": null, "dilation_rate": [1, 1], "filters": 1024, "kernel_regularizer": null}, "inbound_nodes": [[["activation_24", 0, 0, {}]]], "class_name": "Conv2D"}, {"name": "res4a_branch1", "config": {"kernel_constraint": null, "bias_initializer": {"config": {}, "class_name": "Zeros"}, "data_format": "channels_last", "kernel_size": [1, 1], "strides": [2, 2], "padding": "valid", "activity_regularizer": null, "name": "res4a_branch1", "activation": "linear", "bias_regularizer": null, "kernel_initializer": {"config": {"mode": "fan_avg", "distribution": "uniform", "scale": 1.0, "seed": 0}, "class_name": "VarianceScaling"}, "trainable": true, "use_bias": true, "bias_constraint": null, "dilation_rate": [1, 1], "filters": 1024, "kernel_regularizer": null}, "inbound_nodes": [[["activation_22", 0, 0, {}]]], "class_name": "Conv2D"}, {"name": "bn4a_branch2c", "config": {"moving_mean_initializer": {"config": {}, "class_name": "Zeros"}, "gamma_regularizer": null, "name": "bn4a_branch2c", "beta_initializer": {"config": {}, "class_name": "Zeros"}, "gamma_initializer": {"config": {}, "class_name": "Ones"}, "beta_regularizer": null, "trainable": true, "momentum": 0.99, "center": true, "epsilon": 0.001, "gamma_constraint": null, "axis": 3, "scale": true, "beta_constraint": null, "moving_variance_initializer": {"config": {}, "class_name": "Ones"}}, "inbound_nodes": [[["res4a_branch2c", 0, 0, {}]]], "class_name": "BatchNormalization"}, {"name": "bn4a_branch1", "config": {"moving_mean_initializer": {"config": {}, "class_name": "Zeros"}, "gamma_regularizer": null, "name": "bn4a_branch1", "beta_initializer": {"config": {}, "class_name": "Zeros"}, "gamma_initializer": {"config": {}, "class_name": "Ones"}, "beta_regularizer": null, "trainable": true, "momentum": 0.99, "center": true, "epsilon": 0.001, "gamma_constraint": null, "axis": 3, "scale": true, "beta_constraint": null, "moving_variance_initializer": {"config": {}, "class_name": "Ones"}}, "inbound_nodes": [[["res4a_branch1", 0, 0, {}]]], "class_name": "BatchNormalization"}, {"name": "add_8", "config": {"trainable": true, "name": "add_8"}, "inbound_nodes": [[["bn4a_branch2c", 0, 0, {}], ["bn4a_branch1", 0, 0, {}]]], "class_name": "Add"}, {"name": "activation_25", "config": {"trainable": true, "name": "activation_25", "activation": "relu"}, "inbound_nodes": [[["add_8", 0, 0, {}]]], "class_name": "Activation"}, {"name": "res4b_branch2a", "config": {"kernel_constraint": null, "bias_initializer": {"config": {}, "class_name": "Zeros"}, "data_format": "channels_last", "kernel_size": [1, 1], "strides": [1, 1], "padding": "valid", "activity_regularizer": null, "name": "res4b_branch2a", "activation": "linear", "bias_regularizer": null, "kernel_initializer": {"config": {"mode": "fan_avg", "distribution": "uniform", "scale": 1.0, "seed": 0}, "class_name": "VarianceScaling"}, "trainable": true, "use_bias": true, "bias_constraint": null, "dilation_rate": [1, 1], "filters": 256, "kernel_regularizer": null}, "inbound_nodes": [[["activation_25", 0, 0, {}]]], "class_name": "Conv2D"}, {"name": "bn4b_branch2a", "config": {"moving_mean_initializer": {"config": {}, "class_name": "Zeros"}, "gamma_regularizer": null, "name": "bn4b_branch2a", "beta_initializer": {"config": {}, "class_name": "Zeros"}, "gamma_initializer": {"config": {}, "class_name": "Ones"}, "beta_regularizer": null, "trainable": true, "momentum": 0.99, "center": true, "epsilon": 0.001, "gamma_constraint": null, "axis": 3, "scale": true, "beta_constraint": null, "moving_variance_initializer": {"config": {}, "class_name": "Ones"}}, "inbound_nodes": [[["res4b_branch2a", 0, 0, {}]]], "class_name": "BatchNormalization"}, {"name": "activation_26", "config": {"trainable": true, "name": "activation_26", "activation": "relu"}, "inbound_nodes": [[["bn4b_branch2a", 0, 0, {}]]], "class_name": "Activation"}, {"name": "res4b_branch2b", "config": {"kernel_constraint": null, "bias_initializer": {"config": {}, "class_name": "Zeros"}, "data_format": "channels_last", "kernel_size": [3, 3], "strides": [1, 1], "padding": "same", "activity_regularizer": null, "name": "res4b_branch2b", "activation": "linear", "bias_regularizer": null, "kernel_initializer": {"config": {"mode": "fan_avg", "distribution": "uniform", "scale": 1.0, "seed": 0}, "class_name": "VarianceScaling"}, "trainable": true, "use_bias": true, "bias_constraint": null, "dilation_rate": [1, 1], "filters": 256, "kernel_regularizer": null}, "inbound_nodes": [[["activation_26", 0, 0, {}]]], "class_name": "Conv2D"}, {"name": "bn4b_branch2b", "config": {"moving_mean_initializer": {"config": {}, "class_name": "Zeros"}, "gamma_regularizer": null, "name": "bn4b_branch2b", "beta_initializer": {"config": {}, "class_name": "Zeros"}, "gamma_initializer": {"config": {}, "class_name": "Ones"}, "beta_regularizer": null, "trainable": true, "momentum": 0.99, "center": true, "epsilon": 0.001, "gamma_constraint": null, "axis": 3, "scale": true, "beta_constraint": null, "moving_variance_initializer": {"config": {}, "class_name": "Ones"}}, "inbound_nodes": [[["res4b_branch2b", 0, 0, {}]]], "class_name": "BatchNormalization"}, {"name": "activation_27", "config": {"trainable": true, "name": "activation_27", "activation": "relu"}, "inbound_nodes": [[["bn4b_branch2b", 0, 0, {}]]], "class_name": "Activation"}, {"name": "res4b_branch2c", "config": {"kernel_constraint": null, "bias_initializer": {"config": {}, "class_name": "Zeros"}, "data_format": "channels_last", "kernel_size": [1, 1], "strides": [1, 1], "padding": "valid", "activity_regularizer": null, "name": "res4b_branch2c", "activation": "linear", "bias_regularizer": null, "kernel_initializer": {"config": {"mode": "fan_avg", "distribution": "uniform", "scale": 1.0, "seed": 0}, "class_name": "VarianceScaling"}, "trainable": true, "use_bias": true, "bias_constraint": null, "dilation_rate": [1, 1], "filters": 1024, "kernel_regularizer": null}, "inbound_nodes": [[["activation_27", 0, 0, {}]]], "class_name": "Conv2D"}, {"name": "bn4b_branch2c", "config": {"moving_mean_initializer": {"config": {}, "class_name": "Zeros"}, "gamma_regularizer": null, "name": "bn4b_branch2c", "beta_initializer": {"config": {}, "class_name": "Zeros"}, "gamma_initializer": {"config": {}, "class_name": "Ones"}, "beta_regularizer": null, "trainable": true, "momentum": 0.99, "center": true, "epsilon": 0.001, "gamma_constraint": null, "axis": 3, "scale": true, "beta_constraint": null, "moving_variance_initializer": {"config": {}, "class_name": "Ones"}}, "inbound_nodes": [[["res4b_branch2c", 0, 0, {}]]], "class_name": "BatchNormalization"}, {"name": "add_9", "config": {"trainable": true, "name": "add_9"}, "inbound_nodes": [[["bn4b_branch2c", 0, 0, {}], ["activation_25", 0, 0, {}]]], "class_name": "Add"}, {"name": "activation_28", "config": {"trainable": true, "name": "activation_28", "activation": "relu"}, "inbound_nodes": [[["add_9", 0, 0, {}]]], "class_name": "Activation"}, {"name": "res4c_branch2a", "config": {"kernel_constraint": null, "bias_initializer": {"config": {}, "class_name": "Zeros"}, "data_format": "channels_last", "kernel_size": [1, 1], "strides": [1, 1], "padding": "valid", "activity_regularizer": null, "name": "res4c_branch2a", "activation": "linear", "bias_regularizer": null, "kernel_initializer": {"config": {"mode": "fan_avg", "distribution": "uniform", "scale": 1.0, "seed": 0}, "class_name": "VarianceScaling"}, "trainable": true, "use_bias": true, "bias_constraint": null, "dilation_rate": [1, 1], "filters": 256, "kernel_regularizer": null}, "inbound_nodes": [[["activation_28", 0, 0, {}]]], "class_name": "Conv2D"}, {"name": "bn4c_branch2a", "config": {"moving_mean_initializer": {"config": {}, "class_name": "Zeros"}, "gamma_regularizer": null, "name": "bn4c_branch2a", "beta_initializer": {"config": {}, "class_name": "Zeros"}, "gamma_initializer": {"config": {}, "class_name": "Ones"}, "beta_regularizer": null, "trainable": true, "momentum": 0.99, "center": true, "epsilon": 0.001, "gamma_constraint": null, "axis": 3, "scale": true, "beta_constraint": null, "moving_variance_initializer": {"config": {}, "class_name": "Ones"}}, "inbound_nodes": [[["res4c_branch2a", 0, 0, {}]]], "class_name": "BatchNormalization"}, {"name": "activation_29", "config": {"trainable": true, "name": "activation_29", "activation": "relu"}, "inbound_nodes": [[["bn4c_branch2a", 0, 0, {}]]], "class_name": "Activation"}, {"name": "res4c_branch2b", "config": {"kernel_constraint": null, "bias_initializer": {"config": {}, "class_name": "Zeros"}, "data_format": "channels_last", "kernel_size": [3, 3], "strides": [1, 1], "padding": "same", "activity_regularizer": null, "name": "res4c_branch2b", "activation": "linear", "bias_regularizer": null, "kernel_initializer": {"config": {"mode": "fan_avg", "distribution": "uniform", "scale": 1.0, "seed": 0}, "class_name": "VarianceScaling"}, "trainable": true, "use_bias": true, "bias_constraint": null, "dilation_rate": [1, 1], "filters": 256, "kernel_regularizer": null}, "inbound_nodes": [[["activation_29", 0, 0, {}]]], "class_name": "Conv2D"}, {"name": "bn4c_branch2b", "config": {"moving_mean_initializer": {"config": {}, "class_name": "Zeros"}, "gamma_regularizer": null, "name": "bn4c_branch2b", "beta_initializer": {"config": {}, "class_name": "Zeros"}, "gamma_initializer": {"config": {}, "class_name": "Ones"}, "beta_regularizer": null, "trainable": true, "momentum": 0.99, "center": true, "epsilon": 0.001, "gamma_constraint": null, "axis": 3, "scale": true, "beta_constraint": null, "moving_variance_initializer": {"config": {}, "class_name": "Ones"}}, "inbound_nodes": [[["res4c_branch2b", 0, 0, {}]]], "class_name": "BatchNormalization"}, {"name": "activation_30", "config": {"trainable": true, "name": "activation_30", "activation": "relu"}, "inbound_nodes": [[["bn4c_branch2b", 0, 0, {}]]], "class_name": "Activation"}, {"name": "res4c_branch2c", "config": {"kernel_constraint": null, "bias_initializer": {"config": {}, "class_name": "Zeros"}, "data_format": "channels_last", "kernel_size": [1, 1], "strides": [1, 1], "padding": "valid", "activity_regularizer": null, "name": "res4c_branch2c", "activation": "linear", "bias_regularizer": null, "kernel_initializer": {"config": {"mode": "fan_avg", "distribution": "uniform", "scale": 1.0, "seed": 0}, "class_name": "VarianceScaling"}, "trainable": true, "use_bias": true, "bias_constraint": null, "dilation_rate": [1, 1], "filters": 1024, "kernel_regularizer": null}, "inbound_nodes": [[["activation_30", 0, 0, {}]]], "class_name": "Conv2D"}, {"name": "bn4c_branch2c", "config": {"moving_mean_initializer": {"config": {}, "class_name": "Zeros"}, "gamma_regularizer": null, "name": "bn4c_branch2c", "beta_initializer": {"config": {}, "class_name": "Zeros"}, "gamma_initializer": {"config": {}, "class_name": "Ones"}, "beta_regularizer": null, "trainable": true, "momentum": 0.99, "center": true, "epsilon": 0.001, "gamma_constraint": null, "axis": 3, "scale": true, "beta_constraint": null, "moving_variance_initializer": {"config": {}, "class_name": "Ones"}}, "inbound_nodes": [[["res4c_branch2c", 0, 0, {}]]], "class_name": "BatchNormalization"}, {"name": "add_10", "config": {"trainable": true, "name": "add_10"}, "inbound_nodes": [[["bn4c_branch2c", 0, 0, {}], ["activation_28", 0, 0, {}]]], "class_name": "Add"}, {"name": "activation_31", "config": {"trainable": true, "name": "activation_31", "activation": "relu"}, "inbound_nodes": [[["add_10", 0, 0, {}]]], "class_name": "Activation"}, {"name": "res4d_branch2a", "config": {"kernel_constraint": null, "bias_initializer": {"config": {}, "class_name": "Zeros"}, "data_format": "channels_last", "kernel_size": [1, 1], "strides": [1, 1], "padding": "valid", "activity_regularizer": null, "name": "res4d_branch2a", "activation": "linear", "bias_regularizer": null, "kernel_initializer": {"config": {"mode": "fan_avg", "distribution": "uniform", "scale": 1.0, "seed": 0}, "class_name": "VarianceScaling"}, "trainable": true, "use_bias": true, "bias_constraint": null, "dilation_rate": [1, 1], "filters": 256, "kernel_regularizer": null}, "inbound_nodes": [[["activation_31", 0, 0, {}]]], "class_name": "Conv2D"}, {"name": "bn4d_branch2a", "config": {"moving_mean_initializer": {"config": {}, "class_name": "Zeros"}, "gamma_regularizer": null, "name": "bn4d_branch2a", "beta_initializer": {"config": {}, "class_name": "Zeros"}, "gamma_initializer": {"config": {}, "class_name": "Ones"}, "beta_regularizer": null, "trainable": true, "momentum": 0.99, "center": true, "epsilon": 0.001, "gamma_constraint": null, "axis": 3, "scale": true, "beta_constraint": null, "moving_variance_initializer": {"config": {}, "class_name": "Ones"}}, "inbound_nodes": [[["res4d_branch2a", 0, 0, {}]]], "class_name": "BatchNormalization"}, {"name": "activation_32", "config": {"trainable": true, "name": "activation_32", "activation": "relu"}, "inbound_nodes": [[["bn4d_branch2a", 0, 0, {}]]], "class_name": "Activation"}, {"name": "res4d_branch2b", "config": {"kernel_constraint": null, "bias_initializer": {"config": {}, "class_name": "Zeros"}, "data_format": "channels_last", "kernel_size": [3, 3], "strides": [1, 1], "padding": "same", "activity_regularizer": null, "name": "res4d_branch2b", "activation": "linear", "bias_regularizer": null, "kernel_initializer": {"config": {"mode": "fan_avg", "distribution": "uniform", "scale": 1.0, "seed": 0}, "class_name": "VarianceScaling"}, "trainable": true, "use_bias": true, "bias_constraint": null, "dilation_rate": [1, 1], "filters": 256, "kernel_regularizer": null}, "inbound_nodes": [[["activation_32", 0, 0, {}]]], "class_name": "Conv2D"}, {"name": "bn4d_branch2b", "config": {"moving_mean_initializer": {"config": {}, "class_name": "Zeros"}, "gamma_regularizer": null, "name": "bn4d_branch2b", "beta_initializer": {"config": {}, "class_name": "Zeros"}, "gamma_initializer": {"config": {}, "class_name": "Ones"}, "beta_regularizer": null, "trainable": true, "momentum": 0.99, "center": true, "epsilon": 0.001, "gamma_constraint": null, "axis": 3, "scale": true, "beta_constraint": null, "moving_variance_initializer": {"config": {}, "class_name": "Ones"}}, "inbound_nodes": [[["res4d_branch2b", 0, 0, {}]]], "class_name": "BatchNormalization"}, {"name": "activation_33", "config": {"trainable": true, "name": "activation_33", "activation": "relu"}, "inbound_nodes": [[["bn4d_branch2b", 0, 0, {}]]], "class_name": "Activation"}, {"name": "res4d_branch2c", "config": {"kernel_constraint": null, "bias_initializer": {"config": {}, "class_name": "Zeros"}, "data_format": "channels_last", "kernel_size": [1, 1], "strides": [1, 1], "padding": "valid", "activity_regularizer": null, "name": "res4d_branch2c", "activation": "linear", "bias_regularizer": null, "kernel_initializer": {"config": {"mode": "fan_avg", "distribution": "uniform", "scale": 1.0, "seed": 0}, "class_name": "VarianceScaling"}, "trainable": true, "use_bias": true, "bias_constraint": null, "dilation_rate": [1, 1], "filters": 1024, "kernel_regularizer": null}, "inbound_nodes": [[["activation_33", 0, 0, {}]]], "class_name": "Conv2D"}, {"name": "bn4d_branch2c", "config": {"moving_mean_initializer": {"config": {}, "class_name": "Zeros"}, "gamma_regularizer": null, "name": "bn4d_branch2c", "beta_initializer": {"config": {}, "class_name": "Zeros"}, "gamma_initializer": {"config": {}, "class_name": "Ones"}, "beta_regularizer": null, "trainable": true, "momentum": 0.99, "center": true, "epsilon": 0.001, "gamma_constraint": null, "axis": 3, "scale": true, "beta_constraint": null, "moving_variance_initializer": {"config": {}, "class_name": "Ones"}}, "inbound_nodes": [[["res4d_branch2c", 0, 0, {}]]], "class_name": "BatchNormalization"}, {"name": "add_11", "config": {"trainable": true, "name": "add_11"}, "inbound_nodes": [[["bn4d_branch2c", 0, 0, {}], ["activation_31", 0, 0, {}]]], "class_name": "Add"}, {"name": "activation_34", "config": {"trainable": true, "name": "activation_34", "activation": "relu"}, "inbound_nodes": [[["add_11", 0, 0, {}]]], "class_name": "Activation"}, {"name": "res4e_branch2a", "config": {"kernel_constraint": null, "bias_initializer": {"config": {}, "class_name": "Zeros"}, "data_format": "channels_last", "kernel_size": [1, 1], "strides": [1, 1], "padding": "valid", "activity_regularizer": null, "name": "res4e_branch2a", "activation": "linear", "bias_regularizer": null, "kernel_initializer": {"config": {"mode": "fan_avg", "distribution": "uniform", "scale": 1.0, "seed": 0}, "class_name": "VarianceScaling"}, "trainable": true, "use_bias": true, "bias_constraint": null, "dilation_rate": [1, 1], "filters": 256, "kernel_regularizer": null}, "inbound_nodes": [[["activation_34", 0, 0, {}]]], "class_name": "Conv2D"}, {"name": "bn4e_branch2a", "config": {"moving_mean_initializer": {"config": {}, "class_name": "Zeros"}, "gamma_regularizer": null, "name": "bn4e_branch2a", "beta_initializer": {"config": {}, "class_name": "Zeros"}, "gamma_initializer": {"config": {}, "class_name": "Ones"}, "beta_regularizer": null, "trainable": true, "momentum": 0.99, "center": true, "epsilon": 0.001, "gamma_constraint": null, "axis": 3, "scale": true, "beta_constraint": null, "moving_variance_initializer": {"config": {}, "class_name": "Ones"}}, "inbound_nodes": [[["res4e_branch2a", 0, 0, {}]]], "class_name": "BatchNormalization"}, {"name": "activation_35", "config": {"trainable": true, "name": "activation_35", "activation": "relu"}, "inbound_nodes": [[["bn4e_branch2a", 0, 0, {}]]], "class_name": "Activation"}, {"name": "res4e_branch2b", "config": {"kernel_constraint": null, "bias_initializer": {"config": {}, "class_name": "Zeros"}, "data_format": "channels_last", "kernel_size": [3, 3], "strides": [1, 1], "padding": "same", "activity_regularizer": null, "name": "res4e_branch2b", "activation": "linear", "bias_regularizer": null, "kernel_initializer": {"config": {"mode": "fan_avg", "distribution": "uniform", "scale": 1.0, "seed": 0}, "class_name": "VarianceScaling"}, "trainable": true, "use_bias": true, "bias_constraint": null, "dilation_rate": [1, 1], "filters": 256, "kernel_regularizer": null}, "inbound_nodes": [[["activation_35", 0, 0, {}]]], "class_name": "Conv2D"}, {"name": "bn4e_branch2b", "config": {"moving_mean_initializer": {"config": {}, "class_name": "Zeros"}, "gamma_regularizer": null, "name": "bn4e_branch2b", "beta_initializer": {"config": {}, "class_name": "Zeros"}, "gamma_initializer": {"config": {}, "class_name": "Ones"}, "beta_regularizer": null, "trainable": true, "momentum": 0.99, "center": true, "epsilon": 0.001, "gamma_constraint": null, "axis": 3, "scale": true, "beta_constraint": null, "moving_variance_initializer": {"config": {}, "class_name": "Ones"}}, "inbound_nodes": [[["res4e_branch2b", 0, 0, {}]]], "class_name": "BatchNormalization"}, {"name": "activation_36", "config": {"trainable": true, "name": "activation_36", "activation": "relu"}, "inbound_nodes": [[["bn4e_branch2b", 0, 0, {}]]], "class_name": "Activation"}, {"name": "res4e_branch2c", "config": {"kernel_constraint": null, "bias_initializer": {"config": {}, "class_name": "Zeros"}, "data_format": "channels_last", "kernel_size": [1, 1], "strides": [1, 1], "padding": "valid", "activity_regularizer": null, "name": "res4e_branch2c", "activation": "linear", "bias_regularizer": null, "kernel_initializer": {"config": {"mode": "fan_avg", "distribution": "uniform", "scale": 1.0, "seed": 0}, "class_name": "VarianceScaling"}, "trainable": true, "use_bias": true, "bias_constraint": null, "dilation_rate": [1, 1], "filters": 1024, "kernel_regularizer": null}, "inbound_nodes": [[["activation_36", 0, 0, {}]]], "class_name": "Conv2D"}, {"name": "bn4e_branch2c", "config": {"moving_mean_initializer": {"config": {}, "class_name": "Zeros"}, "gamma_regularizer": null, "name": "bn4e_branch2c", "beta_initializer": {"config": {}, "class_name": "Zeros"}, "gamma_initializer": {"config": {}, "class_name": "Ones"}, "beta_regularizer": null, "trainable": true, "momentum": 0.99, "center": true, "epsilon": 0.001, "gamma_constraint": null, "axis": 3, "scale": true, "beta_constraint": null, "moving_variance_initializer": {"config": {}, "class_name": "Ones"}}, "inbound_nodes": [[["res4e_branch2c", 0, 0, {}]]], "class_name": "BatchNormalization"}, {"name": "add_12", "config": {"trainable": true, "name": "add_12"}, "inbound_nodes": [[["bn4e_branch2c", 0, 0, {}], ["activation_34", 0, 0, {}]]], "class_name": "Add"}, {"name": "activation_37", "config": {"trainable": true, "name": "activation_37", "activation": "relu"}, "inbound_nodes": [[["add_12", 0, 0, {}]]], "class_name": "Activation"}, {"name": "res4f_branch2a", "config": {"kernel_constraint": null, "bias_initializer": {"config": {}, "class_name": "Zeros"}, "data_format": "channels_last", "kernel_size": [1, 1], "strides": [1, 1], "padding": "valid", "activity_regularizer": null, "name": "res4f_branch2a", "activation": "linear", "bias_regularizer": null, "kernel_initializer": {"config": {"mode": "fan_avg", "distribution": "uniform", "scale": 1.0, "seed": 0}, "class_name": "VarianceScaling"}, "trainable": true, "use_bias": true, "bias_constraint": null, "dilation_rate": [1, 1], "filters": 256, "kernel_regularizer": null}, "inbound_nodes": [[["activation_37", 0, 0, {}]]], "class_name": "Conv2D"}, {"name": "bn4f_branch2a", "config": {"moving_mean_initializer": {"config": {}, "class_name": "Zeros"}, "gamma_regularizer": null, "name": "bn4f_branch2a", "beta_initializer": {"config": {}, "class_name": "Zeros"}, "gamma_initializer": {"config": {}, "class_name": "Ones"}, "beta_regularizer": null, "trainable": true, "momentum": 0.99, "center": true, "epsilon": 0.001, "gamma_constraint": null, "axis": 3, "scale": true, "beta_constraint": null, "moving_variance_initializer": {"config": {}, "class_name": "Ones"}}, "inbound_nodes": [[["res4f_branch2a", 0, 0, {}]]], "class_name": "BatchNormalization"}, {"name": "activation_38", "config": {"trainable": true, "name": "activation_38", "activation": "relu"}, "inbound_nodes": [[["bn4f_branch2a", 0, 0, {}]]], "class_name": "Activation"}, {"name": "res4f_branch2b", "config": {"kernel_constraint": null, "bias_initializer": {"config": {}, "class_name": "Zeros"}, "data_format": "channels_last", "kernel_size": [3, 3], "strides": [1, 1], "padding": "same", "activity_regularizer": null, "name": "res4f_branch2b", "activation": "linear", "bias_regularizer": null, "kernel_initializer": {"config": {"mode": "fan_avg", "distribution": "uniform", "scale": 1.0, "seed": 0}, "class_name": "VarianceScaling"}, "trainable": true, "use_bias": true, "bias_constraint": null, "dilation_rate": [1, 1], "filters": 256, "kernel_regularizer": null}, "inbound_nodes": [[["activation_38", 0, 0, {}]]], "class_name": "Conv2D"}, {"name": "bn4f_branch2b", "config": {"moving_mean_initializer": {"config": {}, "class_name": "Zeros"}, "gamma_regularizer": null, "name": "bn4f_branch2b", "beta_initializer": {"config": {}, "class_name": "Zeros"}, "gamma_initializer": {"config": {}, "class_name": "Ones"}, "beta_regularizer": null, "trainable": true, "momentum": 0.99, "center": true, "epsilon": 0.001, "gamma_constraint": null, "axis": 3, "scale": true, "beta_constraint": null, "moving_variance_initializer": {"config": {}, "class_name": "Ones"}}, "inbound_nodes": [[["res4f_branch2b", 0, 0, {}]]], "class_name": "BatchNormalization"}, {"name": "activation_39", "config": {"trainable": true, "name": "activation_39", "activation": "relu"}, "inbound_nodes": [[["bn4f_branch2b", 0, 0, {}]]], "class_name": "Activation"}, {"name": "res4f_branch2c", "config": {"kernel_constraint": null, "bias_initializer": {"config": {}, "class_name": "Zeros"}, "data_format": "channels_last", "kernel_size": [1, 1], "strides": [1, 1], "padding": "valid", "activity_regularizer": null, "name": "res4f_branch2c", "activation": "linear", "bias_regularizer": null, "kernel_initializer": {"config": {"mode": "fan_avg", "distribution": "uniform", "scale": 1.0, "seed": 0}, "class_name": "VarianceScaling"}, "trainable": true, "use_bias": true, "bias_constraint": null, "dilation_rate": [1, 1], "filters": 1024, "kernel_regularizer": null}, "inbound_nodes": [[["activation_39", 0, 0, {}]]], "class_name": "Conv2D"}, {"name": "bn4f_branch2c", "config": {"moving_mean_initializer": {"config": {}, "class_name": "Zeros"}, "gamma_regularizer": null, "name": "bn4f_branch2c", "beta_initializer": {"config": {}, "class_name": "Zeros"}, "gamma_initializer": {"config": {}, "class_name": "Ones"}, "beta_regularizer": null, "trainable": true, "momentum": 0.99, "center": true, "epsilon": 0.001, "gamma_constraint": null, "axis": 3, "scale": true, "beta_constraint": null, "moving_variance_initializer": {"config": {}, "class_name": "Ones"}}, "inbound_nodes": [[["res4f_branch2c", 0, 0, {}]]], "class_name": "BatchNormalization"}, {"name": "add_13", "config": {"trainable": true, "name": "add_13"}, "inbound_nodes": [[["bn4f_branch2c", 0, 0, {}], ["activation_37", 0, 0, {}]]], "class_name": "Add"}, {"name": "activation_40", "config": {"trainable": true, "name": "activation_40", "activation": "relu"}, "inbound_nodes": [[["add_13", 0, 0, {}]]], "class_name": "Activation"}, {"name": "res5a_branch2a", "config": {"kernel_constraint": null, "bias_initializer": {"config": {}, "class_name": "Zeros"}, "data_format": "channels_last", "kernel_size": [1, 1], "strides": [2, 2], "padding": "valid", "activity_regularizer": null, "name": "res5a_branch2a", "activation": "linear", "bias_regularizer": null, "kernel_initializer": {"config": {"mode": "fan_avg", "distribution": "uniform", "scale": 1.0, "seed": 0}, "class_name": "VarianceScaling"}, "trainable": true, "use_bias": true, "bias_constraint": null, "dilation_rate": [1, 1], "filters": 512, "kernel_regularizer": null}, "inbound_nodes": [[["activation_40", 0, 0, {}]]], "class_name": "Conv2D"}, {"name": "bn5a_branch2a", "config": {"moving_mean_initializer": {"config": {}, "class_name": "Zeros"}, "gamma_regularizer": null, "name": "bn5a_branch2a", "beta_initializer": {"config": {}, "class_name": "Zeros"}, "gamma_initializer": {"config": {}, "class_name": "Ones"}, "beta_regularizer": null, "trainable": true, "momentum": 0.99, "center": true, "epsilon": 0.001, "gamma_constraint": null, "axis": 3, "scale": true, "beta_constraint": null, "moving_variance_initializer": {"config": {}, "class_name": "Ones"}}, "inbound_nodes": [[["res5a_branch2a", 0, 0, {}]]], "class_name": "BatchNormalization"}, {"name": "activation_41", "config": {"trainable": true, "name": "activation_41", "activation": "relu"}, "inbound_nodes": [[["bn5a_branch2a", 0, 0, {}]]], "class_name": "Activation"}, {"name": "res5a_branch2b", "config": {"kernel_constraint": null, "bias_initializer": {"config": {}, "class_name": "Zeros"}, "data_format": "channels_last", "kernel_size": [3, 3], "strides": [1, 1], "padding": "same", "activity_regularizer": null, "name": "res5a_branch2b", "activation": "linear", "bias_regularizer": null, "kernel_initializer": {"config": {"mode": "fan_avg", "distribution": "uniform", "scale": 1.0, "seed": 0}, "class_name": "VarianceScaling"}, "trainable": true, "use_bias": true, "bias_constraint": null, "dilation_rate": [1, 1], "filters": 512, "kernel_regularizer": null}, "inbound_nodes": [[["activation_41", 0, 0, {}]]], "class_name": "Conv2D"}, {"name": "bn5a_branch2b", "config": {"moving_mean_initializer": {"config": {}, "class_name": "Zeros"}, "gamma_regularizer": null, "name": "bn5a_branch2b", "beta_initializer": {"config": {}, "class_name": "Zeros"}, "gamma_initializer": {"config": {}, "class_name": "Ones"}, "beta_regularizer": null, "trainable": true, "momentum": 0.99, "center": true, "epsilon": 0.001, "gamma_constraint": null, "axis": 3, "scale": true, "beta_constraint": null, "moving_variance_initializer": {"config": {}, "class_name": "Ones"}}, "inbound_nodes": [[["res5a_branch2b", 0, 0, {}]]], "class_name": "BatchNormalization"}, {"name": "activation_42", "config": {"trainable": true, "name": "activation_42", "activation": "relu"}, "inbound_nodes": [[["bn5a_branch2b", 0, 0, {}]]], "class_name": "Activation"}, {"name": "res5a_branch2c", "config": {"kernel_constraint": null, "bias_initializer": {"config": {}, "class_name": "Zeros"}, "data_format": "channels_last", "kernel_size": [1, 1], "strides": [1, 1], "padding": "valid", "activity_regularizer": null, "name": "res5a_branch2c", "activation": "linear", "bias_regularizer": null, "kernel_initializer": {"config": {"mode": "fan_avg", "distribution": "uniform", "scale": 1.0, "seed": 0}, "class_name": "VarianceScaling"}, "trainable": true, "use_bias": true, "bias_constraint": null, "dilation_rate": [1, 1], "filters": 2048, "kernel_regularizer": null}, "inbound_nodes": [[["activation_42", 0, 0, {}]]], "class_name": "Conv2D"}, {"name": "res5a_branch1", "config": {"kernel_constraint": null, "bias_initializer": {"config": {}, "class_name": "Zeros"}, "data_format": "channels_last", "kernel_size": [1, 1], "strides": [2, 2], "padding": "valid", "activity_regularizer": null, "name": "res5a_branch1", "activation": "linear", "bias_regularizer": null, "kernel_initializer": {"config": {"mode": "fan_avg", "distribution": "uniform", "scale": 1.0, "seed": 0}, "class_name": "VarianceScaling"}, "trainable": true, "use_bias": true, "bias_constraint": null, "dilation_rate": [1, 1], "filters": 2048, "kernel_regularizer": null}, "inbound_nodes": [[["activation_40", 0, 0, {}]]], "class_name": "Conv2D"}, {"name": "bn5a_branch2c", "config": {"moving_mean_initializer": {"config": {}, "class_name": "Zeros"}, "gamma_regularizer": null, "name": "bn5a_branch2c", "beta_initializer": {"config": {}, "class_name": "Zeros"}, "gamma_initializer": {"config": {}, "class_name": "Ones"}, "beta_regularizer": null, "trainable": true, "momentum": 0.99, "center": true, "epsilon": 0.001, "gamma_constraint": null, "axis": 3, "scale": true, "beta_constraint": null, "moving_variance_initializer": {"config": {}, "class_name": "Ones"}}, "inbound_nodes": [[["res5a_branch2c", 0, 0, {}]]], "class_name": "BatchNormalization"}, {"name": "bn5a_branch1", "config": {"moving_mean_initializer": {"config": {}, "class_name": "Zeros"}, "gamma_regularizer": null, "name": "bn5a_branch1", "beta_initializer": {"config": {}, "class_name": "Zeros"}, "gamma_initializer": {"config": {}, "class_name": "Ones"}, "beta_regularizer": null, "trainable": true, "momentum": 0.99, "center": true, "epsilon": 0.001, "gamma_constraint": null, "axis": 3, "scale": true, "beta_constraint": null, "moving_variance_initializer": {"config": {}, "class_name": "Ones"}}, "inbound_nodes": [[["res5a_branch1", 0, 0, {}]]], "class_name": "BatchNormalization"}, {"name": "add_14", "config": {"trainable": true, "name": "add_14"}, "inbound_nodes": [[["bn5a_branch2c", 0, 0, {}], ["bn5a_branch1", 0, 0, {}]]], "class_name": "Add"}, {"name": "activation_43", "config": {"trainable": true, "name": "activation_43", "activation": "relu"}, "inbound_nodes": [[["add_14", 0, 0, {}]]], "class_name": "Activation"}, {"name": "res5b_branch2a", "config": {"kernel_constraint": null, "bias_initializer": {"config": {}, "class_name": "Zeros"}, "data_format": "channels_last", "kernel_size": [1, 1], "strides": [1, 1], "padding": "valid", "activity_regularizer": null, "name": "res5b_branch2a", "activation": "linear", "bias_regularizer": null, "kernel_initializer": {"config": {"mode": "fan_avg", "distribution": "uniform", "scale": 1.0, "seed": 0}, "class_name": "VarianceScaling"}, "trainable": true, "use_bias": true, "bias_constraint": null, "dilation_rate": [1, 1], "filters": 512, "kernel_regularizer": null}, "inbound_nodes": [[["activation_43", 0, 0, {}]]], "class_name": "Conv2D"}, {"name": "bn5b_branch2a", "config": {"moving_mean_initializer": {"config": {}, "class_name": "Zeros"}, "gamma_regularizer": null, "name": "bn5b_branch2a", "beta_initializer": {"config": {}, "class_name": "Zeros"}, "gamma_initializer": {"config": {}, "class_name": "Ones"}, "beta_regularizer": null, "trainable": true, "momentum": 0.99, "center": true, "epsilon": 0.001, "gamma_constraint": null, "axis": 3, "scale": true, "beta_constraint": null, "moving_variance_initializer": {"config": {}, "class_name": "Ones"}}, "inbound_nodes": [[["res5b_branch2a", 0, 0, {}]]], "class_name": "BatchNormalization"}, {"name": "activation_44", "config": {"trainable": true, "name": "activation_44", "activation": "relu"}, "inbound_nodes": [[["bn5b_branch2a", 0, 0, {}]]], "class_name": "Activation"}, {"name": "res5b_branch2b", "config": {"kernel_constraint": null, "bias_initializer": {"config": {}, "class_name": "Zeros"}, "data_format": "channels_last", "kernel_size": [3, 3], "strides": [1, 1], "padding": "same", "activity_regularizer": null, "name": "res5b_branch2b", "activation": "linear", "bias_regularizer": null, "kernel_initializer": {"config": {"mode": "fan_avg", "distribution": "uniform", "scale": 1.0, "seed": 0}, "class_name": "VarianceScaling"}, "trainable": true, "use_bias": true, "bias_constraint": null, "dilation_rate": [1, 1], "filters": 512, "kernel_regularizer": null}, "inbound_nodes": [[["activation_44", 0, 0, {}]]], "class_name": "Conv2D"}, {"name": "bn5b_branch2b", "config": {"moving_mean_initializer": {"config": {}, "class_name": "Zeros"}, "gamma_regularizer": null, "name": "bn5b_branch2b", "beta_initializer": {"config": {}, "class_name": "Zeros"}, "gamma_initializer": {"config": {}, "class_name": "Ones"}, "beta_regularizer": null, "trainable": true, "momentum": 0.99, "center": true, "epsilon": 0.001, "gamma_constraint": null, "axis": 3, "scale": true, "beta_constraint": null, "moving_variance_initializer": {"config": {}, "class_name": "Ones"}}, "inbound_nodes": [[["res5b_branch2b", 0, 0, {}]]], "class_name": "BatchNormalization"}, {"name": "activation_45", "config": {"trainable": true, "name": "activation_45", "activation": "relu"}, "inbound_nodes": [[["bn5b_branch2b", 0, 0, {}]]], "class_name": "Activation"}, {"name": "res5b_branch2c", "config": {"kernel_constraint": null, "bias_initializer": {"config": {}, "class_name": "Zeros"}, "data_format": "channels_last", "kernel_size": [1, 1], "strides": [1, 1], "padding": "valid", "activity_regularizer": null, "name": "res5b_branch2c", "activation": "linear", "bias_regularizer": null, "kernel_initializer": {"config": {"mode": "fan_avg", "distribution": "uniform", "scale": 1.0, "seed": 0}, "class_name": "VarianceScaling"}, "trainable": true, "use_bias": true, "bias_constraint": null, "dilation_rate": [1, 1], "filters": 2048, "kernel_regularizer": null}, "inbound_nodes": [[["activation_45", 0, 0, {}]]], "class_name": "Conv2D"}, {"name": "bn5b_branch2c", "config": {"moving_mean_initializer": {"config": {}, "class_name": "Zeros"}, "gamma_regularizer": null, "name": "bn5b_branch2c", "beta_initializer": {"config": {}, "class_name": "Zeros"}, "gamma_initializer": {"config": {}, "class_name": "Ones"}, "beta_regularizer": null, "trainable": true, "momentum": 0.99, "center": true, "epsilon": 0.001, "gamma_constraint": null, "axis": 3, "scale": true, "beta_constraint": null, "moving_variance_initializer": {"config": {}, "class_name": "Ones"}}, "inbound_nodes": [[["res5b_branch2c", 0, 0, {}]]], "class_name": "BatchNormalization"}, {"name": "add_15", "config": {"trainable": true, "name": "add_15"}, "inbound_nodes": [[["bn5b_branch2c", 0, 0, {}], ["activation_43", 0, 0, {}]]], "class_name": "Add"}, {"name": "activation_46", "config": {"trainable": true, "name": "activation_46", "activation": "relu"}, "inbound_nodes": [[["add_15", 0, 0, {}]]], "class_name": "Activation"}, {"name": "res5c_branch2a", "config": {"kernel_constraint": null, "bias_initializer": {"config": {}, "class_name": "Zeros"}, "data_format": "channels_last", "kernel_size": [1, 1], "strides": [1, 1], "padding": "valid", "activity_regularizer": null, "name": "res5c_branch2a", "activation": "linear", "bias_regularizer": null, "kernel_initializer": {"config": {"mode": "fan_avg", "distribution": "uniform", "scale": 1.0, "seed": 0}, "class_name": "VarianceScaling"}, "trainable": true, "use_bias": true, "bias_constraint": null, "dilation_rate": [1, 1], "filters": 512, "kernel_regularizer": null}, "inbound_nodes": [[["activation_46", 0, 0, {}]]], "class_name": "Conv2D"}, {"name": "bn5c_branch2a", "config": {"moving_mean_initializer": {"config": {}, "class_name": "Zeros"}, "gamma_regularizer": null, "name": "bn5c_branch2a", "beta_initializer": {"config": {}, "class_name": "Zeros"}, "gamma_initializer": {"config": {}, "class_name": "Ones"}, "beta_regularizer": null, "trainable": true, "momentum": 0.99, "center": true, "epsilon": 0.001, "gamma_constraint": null, "axis": 3, "scale": true, "beta_constraint": null, "moving_variance_initializer": {"config": {}, "class_name": "Ones"}}, "inbound_nodes": [[["res5c_branch2a", 0, 0, {}]]], "class_name": "BatchNormalization"}, {"name": "activation_47", "config": {"trainable": true, "name": "activation_47", "activation": "relu"}, "inbound_nodes": [[["bn5c_branch2a", 0, 0, {}]]], "class_name": "Activation"}, {"name": "res5c_branch2b", "config": {"kernel_constraint": null, "bias_initializer": {"config": {}, "class_name": "Zeros"}, "data_format": "channels_last", "kernel_size": [3, 3], "strides": [1, 1], "padding": "same", "activity_regularizer": null, "name": "res5c_branch2b", "activation": "linear", "bias_regularizer": null, "kernel_initializer": {"config": {"mode": "fan_avg", "distribution": "uniform", "scale": 1.0, "seed": 0}, "class_name": "VarianceScaling"}, "trainable": true, "use_bias": true, "bias_constraint": null, "dilation_rate": [1, 1], "filters": 512, "kernel_regularizer": null}, "inbound_nodes": [[["activation_47", 0, 0, {}]]], "class_name": "Conv2D"}, {"name": "bn5c_branch2b", "config": {"moving_mean_initializer": {"config": {}, "class_name": "Zeros"}, "gamma_regularizer": null, "name": "bn5c_branch2b", "beta_initializer": {"config": {}, "class_name": "Zeros"}, "gamma_initializer": {"config": {}, "class_name": "Ones"}, "beta_regularizer": null, "trainable": true, "momentum": 0.99, "center": true, "epsilon": 0.001, "gamma_constraint": null, "axis": 3, "scale": true, "beta_constraint": null, "moving_variance_initializer": {"config": {}, "class_name": "Ones"}}, "inbound_nodes": [[["res5c_branch2b", 0, 0, {}]]], "class_name": "BatchNormalization"}, {"name": "activation_48", "config": {"trainable": true, "name": "activation_48", "activation": "relu"}, "inbound_nodes": [[["bn5c_branch2b", 0, 0, {}]]], "class_name": "Activation"}, {"name": "res5c_branch2c", "config": {"kernel_constraint": null, "bias_initializer": {"config": {}, "class_name": "Zeros"}, "data_format": "channels_last", "kernel_size": [1, 1], "strides": [1, 1], "padding": "valid", "activity_regularizer": null, "name": "res5c_branch2c", "activation": "linear", "bias_regularizer": null, "kernel_initializer": {"config": {"mode": "fan_avg", "distribution": "uniform", "scale": 1.0, "seed": 0}, "class_name": "VarianceScaling"}, "trainable": true, "use_bias": true, "bias_constraint": null, "dilation_rate": [1, 1], "filters": 2048, "kernel_regularizer": null}, "inbound_nodes": [[["activation_48", 0, 0, {}]]], "class_name": "Conv2D"}, {"name": "bn5c_branch2c", "config": {"moving_mean_initializer": {"config": {}, "class_name": "Zeros"}, "gamma_regularizer": null, "name": "bn5c_branch2c", "beta_initializer": {"config": {}, "class_name": "Zeros"}, "gamma_initializer": {"config": {}, "class_name": "Ones"}, "beta_regularizer": null, "trainable": true, "momentum": 0.99, "center": true, "epsilon": 0.001, "gamma_constraint": null, "axis": 3, "scale": true, "beta_constraint": null, "moving_variance_initializer": {"config": {}, "class_name": "Ones"}}, "inbound_nodes": [[["res5c_branch2c", 0, 0, {}]]], "class_name": "BatchNormalization"}, {"name": "add_16", "config": {"trainable": true, "name": "add_16"}, "inbound_nodes": [[["bn5c_branch2c", 0, 0, {}], ["activation_46", 0, 0, {}]]], "class_name": "Add"}, {"name": "activation_49", "config": {"trainable": true, "name": "activation_49", "activation": "relu"}, "inbound_nodes": [[["add_16", 0, 0, {}]]], "class_name": "Activation"}, {"name": "average_pooling2d_1", "config": {"trainable": true, "data_format": "channels_last", "pool_size": [2, 2], "strides": [2, 2], "padding": "valid", "name": "average_pooling2d_1"}, "inbound_nodes": [[["activation_49", 0, 0, {}]]], "class_name": "AveragePooling2D"}, {"name": "flatten_1", "config": {"trainable": true, "name": "flatten_1"}, "inbound_nodes": [[["average_pooling2d_1", 0, 0, {}]]], "class_name": "Flatten"}, {"name": "fc6", "config": {"units": 6, "bias_initializer": {"config": {}, "class_name": "Zeros"}, "activation": "softmax", "activity_regularizer": null, "name": "fc6", "kernel_constraint": null, "bias_regularizer": null, "kernel_initializer": {"config": {"mode": "fan_avg", "distribution": "uniform", "scale": 1.0, "seed": 0}, "class_name": "VarianceScaling"}, "trainable": true, "use_bias": true, "bias_constraint": null, "kernel_regularizer": null}, "inbound_nodes": [[["flatten_1", 0, 0, {}]]], "class_name": "Dense"}]}, "class_name": "Model"}